data/checkpoint_critic.pth (torch_old, 83855 bytes, 9 tensors)

fcs1.weight f4 [128, 24]
00000000: a479 353c 674f bdb8 e156 c73c 9e92 37bc
00000010: 30b1 a13b 323a 843b e156 c73c 9e92 37bc
00000020: b0ec 313c 88a3 6cba 66e9 6bbb ab27 a2bb
00000030: e49e b33b 643e ca3b 66e9 6bbb ab27 a2bb
00000040: 111e b83b fbe6 38ba 6c59 e9bc d693 b23a
00000050: 3b39 ea3b 2ee2 e83b 6c59 e9bc d693 b23a
00000060: 85fc 0a3b bb7b fd3b 321a 27bd 7efe 623a
00000070: c3ca 143c 011e 04b9 321a 27bd 7efe 623a
00000080: 2abb 78b8 c47a e43b 2cec 37bc e416 9abb
00000090: 2d63 0c3c cb93 65ba 2cec 37bc e416 9abb
000000a0: 5694 2bba 6639 be3b e0d7 4aba 8579 9cbb
000000b0: 3265 053c 3f98 bdba e0d7 4aba 8579 9cbb
000000c0: ecd7 aebb 8447 12bb 5ac0 223c 0577 9bb9
000000d0: a1db c0bb b2ff b3ba 5ac0 223c 0577 9bb9
000000e0: bb7d bcbb 6b2c 01bb 0398 15bb 92a0 453b
000000f0: d30a dfbb 17f8 43ba 0398 15bb 92a0 453b
00000100: 39ee 01bc 58a1 89ba 2b97 8ebc 9a6c a83b
00000110: cd22 05bc 3790 ddb9 2b97 8ebc 9a6c a83b
00000120: fe3b 0b3c edf4 fc3a 3a3b 4e3c 3d22 8fbb
00000130: 09a6 003c 73d4 6f3b 3a3b 4e3c 3d22 8fbb
00000140: efde 0d3c 9ad1 603a fc2e c33b 69b7 1ebc
00000150: 79d2 fa3b ce3e a83b fc2e c33b 69b7 1ebc
00000160: 444d 013c c40a 4d3a a4ee 5fbc ae08 27ba
00000170: 2cf4 f73b da90 ad3b a4ee 5fbc ae08 27ba
00000180: e500 4b3c 726f b9ba 0405 c73c 80ea 44ba
00000190: 7124 ca3b 541c b638 0405 c73c 80ea 44ba
000001a0: 2d65 0f3c 60eb b0ba 7239 8abc 083d 5eb8
000001b0: 4ae4 c63b 50b1 3ab9 7239 8abc 083d 5eb8
000001c0: a7d9 873b fb21 77ba 2999 00bd c03c 933b
000001d0: 550c a93b 11b5 f2b9 2999 00bd c03c 933b
000001e0: 50bd 4c3b 91ee 9839 7551 8bbb 7796 86b8
000001f0: 3f7c c538 a096 aa39 7551 8bbb 7796 86b8
00000200: 6f03 0e3b ac3a e439 e0dc 83bc 1900 2639
00000210: c05c a139 8484 b139 e0dc 83bc 1900 2639
00000220: 67db cc3a 9720 0e3a 0569 66bc ad92 5fb9
00000230: be8a f139 56c9 d839 0569 66bc ad92 5fb9
00000240: 5014 1b3d 8ca8 8d3e b379 74ba a515 c73d
00000250: 455f aabd 375f 17be cf76 a13b d016 c73d
00000260: 99a0 ce3c bc1d a03e 6228 b3bb 8dbd 893e
00000270: cbe9 ecbd a884 25be ca2c 06bc bbbe 893e
00000280: 6236 343d 23b6 a13e 7b49 6dbc 241c 0fbd
00000290: 4da5 22be 6856 81be bc16 41bc 0519 0fbd
000002a0: b003 00bb ce60 8fbb 38b1 df3c f40b 383c
000002b0: 6b73 a13b 5987 20bc 38b1 df3c f40b 383c
000002c0: 4025 51bb 13e3 6bbb 3917 9bbc ef47 093c
000002d0: c3da ae3b 0c20 2abc 3917 9bbc ef47 093c
000002e0: 463c 1ab7 ff33 15bb 615e b3bb efe4 1a3c
000002f0: 75d2 d13b c7c6 31bc 615e b3bb efe4 1a3c
00000300: ebf4 933a 1580 07b6 c43a a83c 7abf 823a
00000310: e776 d5b9 4f38 52b9 c43a a83c 7abf 823a
00000320: 5472 d039 aa1a 9738 4c95 3c3c 8d61 2a3a
00000330: d01f 62ba 7f49 04ba 4c95 3c3c 8d61 2a3a
00000340: a600 2039 7d7d df38 f95f d43c 931f 5939
00000350: 6432 8aba f0de 66ba f95f d43c 931f 5939
00000360: 494f 3fbe 17d7 003e 064c 773c d42b 123d
00000370: 1f08 863d cd96 83be de2d 7cbc c8bc 113d
00000380: 9220 dcbd 9baa 173e 78ee fe3c ce73 e5bb
00000390: cfbd 4abd ef03 c0be 03ca 92bc 96a9 e5bb
000003a0: c27f 50bc d5fa 163e 83a1 1a3d a6de 50be
000003b0: 03c2 0fbd 0c3c 9dbe e99e 9abc 856f 51be
000003c0: 0077 6a3c f070 92bb a26a 20bd 7c39 6dbc
000003d0: 1c1f 2d3c f34a d4bc a26a 20bd 7c39 6dbc
000003e0: 09c6 623c 292d 19bb e7c7 b0bc 1bd1 15bc
000003f0: fee3 2e3c 4698 b9bc e7c7 b0bc 1bd1 15bc
0.011076365 -9.027012e-05 0.02433342 -0.01120439 0.0049344525 0.0040352577 0.02433342 -0.01120439
0.010859653 -0.00090270536 -0.003599727 -0.0049485764 0.0054815877 0.0061719883 -0.003599727 -0.0049485764
0.0056188186 -0.0007053462 -0.028485022 0.0013624381 0.0071479357 0.007107041 -0.028485022 0.0013624381
0.0021207642 0.007735697 -0.040796466 0.0008659138 0.009081545 -0.00012599678 -0.040796466 0.0008659138
-5.9302118e-05 0.0069726426 -0.011225741 -0.004702436 0.008568567 -0.00087576796 -0.011225741 -0.004702436
-0.0006545236 0.0058051823 -0.00077378564 -0.0047752284 0.008141803 -0.0014464929 -0.00077378564 -0.0047752284
-0.0053357985 -0.0022320459 0.0099335555 -0.0002965258 -0.005885557 -0.0013732819 0.0099335555 -0.0002965258
-0.005752293 -0.0019710313 -0.0022826202 0.0030155522 -0.0068067103 -0.0007475628 -0.0022826202 0.0030155522
-0.007930332 -0.0010500355 -0.017406067 0.0051398994 -0.008125973 -0.00042259853 -0.017406067 0.0051398994
0.00849819 0.0019299068 0.012587363 -0.004368095 0.007852086 0.0036595135 0.012587363 -0.004368095
0.008659109 0.0008576155 0.0059565287 -0.009687283 0.007654485 0.00513444 0.0059565287 -0.009687283
0.007891957 0.00078217336 -0.013667736 -0.0006371838 0.0075669494 0.0052968087 -0.013667736 -0.0006371838
0.01239035 -0.0014147593 0.024294384 -0.000751175 0.006168895 8.683713e-05 0.024294384 -0.000751175
0.0087521495 -0.0013497882 -0.016873095 -5.2985764e-05 0.0060696946 -0.00017804396 -0.016873095 -5.2985764e-05
0.004145819 -0.0009427366 -0.031396065 0.004493326 0.005158941 -0.00046292742 -0.031396065 0.004493326
0.0031240769 0.00029169445 -0.004251654 -6.417644e-05 9.416835e-05 0.0003253715 -0.004251654 -6.417644e-05
0.0021669527 0.00043531263 -0.016096532 0.0001583103 0.00030777417 0.00033858803 -0.016096532 0.0001583103
0.0015629352 0.00054217264 -0.014063125 -0.00021321578 0.00046070473 0.00041348737 -0.014063125 -0.00021321578
0.03786117 0.27667654 -0.0009325996 0.09720925 -0.083189525 -0.14782415 0.004927493 0.09721148
0.025223063 0.31272686 -0.0054674605 0.26902428 -0.1156803 -0.16163886 -0.0081893895 0.26903328
0.043997176 0.31584272 -0.014482851 -0.034938946 -0.1588337 -0.25261235 -0.011785205 -0.03493597
-0.0019533448 -0.0043755537 0.027306184 0.011233319 0.004927089 -0.009797894 0.027306184 0.011233319
-0.0031913072 -0.00359935 -0.018931972 0.008378967 0.005336137 -0.010383617 -0.018931972 0.008378967
-9.193149e-06 -0.0022766588 -0.0054738973 0.009453996 0.0064032623 -0.010850615 -0.0054738973 0.009453996
0.0011288201 -2.0191121e-06 0.020535834 0.0009975277 -0.00040715115 -0.00020048137 0.020535834 0.0009975277
0.00039758033 7.205208e-05 0.0115102045 0.00064995216 -0.0008625956 -0.0005046352 0.0115102045 0.00064995216
0.0001525903 0.00010656843 0.02592467 0.00020706495 -0.0010543582 -0.0008807024 0.02592467 0.00020706495
-0.18682589 0.1258205 0.015093809 0.03568633 0.06544518 -0.2570099 -0.015391795 0.035580426
-0.107484 0.14811175 0.03111957 -0.0070023304 -0.04949742 -0.37503 -0.017918592 -0.0070087416
-0.012725772 0.14744122 0.037751686 -0.20397434 -0.035097133 -0.30709875 -0.018874602 -0.20452698
0.014310598 -0.0044690296 -0.039164193 -0.014479037 0.010566499 -0.025914645 -0.039164193 -0.014479037
0.013841161 -0.0023372865 -0.021579696 -0.009144093 0.010674475 -0.022655617 -0.021579696 -0.009144093

fcs1.bias f4 [128]
00000000: fe04 a8ba 4b7b ebb8 093a c0ba 2c5e b6b9
00000010: 956f ad38 6a6c 1538 80bf 853c 7631 1dbb
00000020: 762c 8239 fa44 72bd 0870 b1bb ebb2 54be
00000030: b0f6 11bb 48a4 723a 6bdf 183a d2b3 72ba
00000040: 6c4f 8ebb 1df6 f9be 4fc2 8bbc b65d 8cbb
00000050: 0dc8 56b9 0020 1fba 269c 2aba 2f28 1cb9
00000060: f1b3 61ba ee1d 753a 5090 96bd 383f 07bf
00000070: 4740 3739 db95 08bd 8aac 34bd f019 68bd
00000080: 8956 4fb9 5bed d73c 8711 c0ba c36d cc39
00000090: 78b0 34ba b20e 8eb9 0686 88bc 177d 76b9
000000a0: ccff 9eb9 8806 10bc d4bf 56bd 2ed7 8abb
000000b0: 2632 dab9 f87d 1abb ac08 3ebe 35a9 94be
000000c0: c81b 76bb 2145 8a3f 1ab2 16b9 efe1 a039
000000d0: 7259 52bb 9087 b739 61c2 8e39 d701 68be
000000e0: 4d0d 10b9 ca9c 9ebb f1a6 d937 23b3 443e
000000f0: e8f8 30bb ccfb e3b7 f74b 12b9 cf2a 85ba
00000100: 689a 23b9 3b40 e039 343b acb9 818b 45ba
00000110: e4e3 b53b f382 eabb 51fb 1039 3c7f 9dba
00000120: 9ade 92be 8e5a 1ebb e3d5 763a 5d3a 25ba
00000130: 146b 8dba 052e bf39 aa2f 02b8 40b3 d4bb
00000140: 13f1 bc39 67d6 cfbb 0be4 ccb9 e2f6 18ba
00000150: b63e 26ba 9712 1d3a c9b8 6539 2556 c7ba
00000160: 37de ba39 9ad2 80bb 7199 7c3a 2787 c63e
00000170: e39f 99ba a08b d5b9 d0e1 cdbb dce2 75bb
00000180: c7ba 80ba 5961 1cbd 2e50 a8ba 70b6 63bc
00000190: 0fd1 1dbb 732d a83a 4949 fdbd f910 5539
000001a0: 9a6d ff3c 0b9d 3bbc 6009 2239 a667 80bc
000001b0: af3e b0bd 55d6 c93b 4221 d339 d875 81ba
000001c0: 568c 24bd 3844 09b9 5f14 5cb9 0554 b039
000001d0: ead8 07be 68d4 83bd 9f9a a7be 51c3 25b9
000001e0: 1b2d b13b d715 d9b9 eace b8ba d5e7 703b
000001f0: 98cc e83c d63e 27bb 2672 a8be 12da 7939
-0.0012818871 -0.00011228638 -0.0014665733 -0.0003478391 8.2700666e-05 3.5625337e-05 0.016326666 -0.002398578
0.00024828658 -0.059147812 -0.0054149665 -0.20771377 -0.0022272281 0.0009256047 0.0005831632 -0.00092583627
-0.004342964 -0.48820582 -0.017060427 -0.004283632 -0.00020483155 -0.0006070137 -0.0006508253 -0.00014892289
-0.0008609882 0.0009350468 -0.07351744 -0.5283084 0.00017476185 -0.03334604 -0.04410986 -0.05666536
-0.00019773295 0.026358297 -0.0014653661 0.0003899169 -0.0006892751 -0.000270953 -0.01666547 -0.00023506988
-0.00030326692 -0.00879062 -0.052429035 -0.004237077 -0.00041617564 -0.0023573618 -0.18557996 -0.29035345
-0.003755318 1.0802346 -0.00014371463 0.00030685912 -0.003209677 0.00035005482 0.00027229174 -0.22656952
-0.00013737865 -0.004840468 2.5946154e-05 0.1920896 -0.0027003828 -2.717776e-05 -0.00013951944 -0.0010159853
-0.00015602412 0.00042772465 -0.00032850506 -0.00075357413 0.0055508483 -0.0071567236 0.00013826533 -0.0012016068
-0.28685457 -0.0024162862 0.0009416027 -0.00063029473 -0.0010789358 0.00036464646 -3.1038806e-05 -0.006491095
0.0003603777 -0.0063426974 -0.00039079817 -0.0005835128 -0.0006341742 0.0005991845 0.0002190798 -0.0015208168
0.00035642248 -0.0039313557 0.00096359017 0.38774988 -0.0011720624 -0.00040730555 -0.0062830225 -0.0037519252
-0.0009821289 -0.038178775 -0.0012841278 -0.013898477 -0.0024080907 0.0012830928 -0.12367494 0.00020319586
0.031180192 -0.011451016 0.00015453016 -0.015674423 -0.08605706 0.0061595836 0.00040269835 -0.0009877039
-0.040172897 -0.00013090752 -0.00020988424 0.00033631935 -0.1326634 -0.06436998 -0.32735154 -0.00015808387
0.0054069883 -0.00041405737 -0.0014099751 0.0036759276 0.02841787 -0.002551963 -0.32899588 0.00023827728

bn.weight f4 [128]
00000000: 3722 5d3b aa53 143b eba1 f33a 8b45 8b3a
00000010: 925c cf3b 177d 3f39 bbe1 ee3d 5fe8 d9ba
00000020: d156 2b3b 35df ea3d 22f6 1e3c 899b 733e
00000030: 9ba3 303b 6438 97ba e64a 673a 236f 9dba
00000040: 8ff5 383e f1e3 e53e fca6 5d3d fd0c 793d
00000050: dbb2 56bb 61c1 053b ac1c 73ba 3758 e239
00000060: 4811 80bb 9fce 7c3a c6b6 c83e 20c7 113f
00000070: a9d9 7abb dda8 f33d 2393 e03d a01a 483e
00000080: 2817 96bb 0e0c 3a3e 1d89 053c 5fbb 6cbb
00000090: 51a8 4d3a 2833 88bb 780b aa3d 7398 6dba
000000a0: 9e1d a33a b940 febb a578 f83d 59c3 8f3d
000000b0: 3e77 8439 12ca f03a d232 f13e 0773 f23e
000000c0: 5081 e43d f520 123f f853 053a 6dc7 cfb9
000000d0: 2c07 6ebb b63d ad3a da1f 833b ff51 df3e
000000e0: f8ae be3a 11cd 59bb 461d 16ba 2199 db3e
000000f0: 4a11 0e3e a54b 8d3a 37db 04bb 2edc cb3a
00000100: 1f42 6ebb 242e 1bbb 3618 34bb e7fd 2f3b
00000110: 1f8a 263c 104f eb3d 23e1 53ba 36fd 01ba
00000120: 7cac 043f b1e2 77b8 6f7f c63a 25b4 c4b9
00000130: ae85 2f3a 10f6 c1ba 31ba 5d3b ccee ff3d
00000140: c815 863b cd64 1e3d 9b2e 1eb9 64ed cf3a
00000150: 5c10 31b9 7f44 083b 8899 293a 6870 f5ba
00000160: d274 fe39 b89c cfbb dc06 a33a 99de 2d3f
00000170: 828e a7bb 07b3 503a ac56 ce3d 22bc 623e
00000180: 29af 873a 074d c53d 9450 61bb c0e7 9c3d
00000190: 40bb 943a afc0 51bb 18bd 8d3e 7ede 04ba
000001a0: 90a2 be3d 9d17 ab3d 1087 8f3a 6a3f 2b3e
000001b0: 3b56 c43e 2ba4 243e f0e2 3f3b 066d 3f3b
000001c0: 1189 b83e d0ac ec3a 394d 00bb 9411 9cba
000001d0: af63 713e 905d 273e 6c7e c73e 4bfc 82bb
000001e0: d46e 5a3d 403a 74ba c5f5 18bb d2e4 0a3e
000001f0: 77ea 2c3e 4d03 65ba e6c2 a63e a938 2fba
0.0033742317 0.0022632875 0.0018587684 0.0010625584 0.006328174 0.00018261779 0.116641484 -0.0016625038
0.0026144276 0.114683546 0.009702237 0.237898 0.0026952985 -0.0011537191 0.00088231114 -0.0012011271
0.18062423 0.44900468 0.054114327 0.060803402 -0.0032760415 0.0020409452 -0.0009273987 0.00043171804
-0.00390831 0.0009643826 0.39201945 0.56944466 -0.0038276708 0.118974425 0.10965564 0.19541407
-0.004580397 0.18168661 0.008150366 -0.0036122424 0.00078452105 -0.004156489 0.08302969 -0.0009063549
0.001244474 -0.0077591804 0.12132386 0.070196815 0.00025265844 0.0018370769 0.47109085 0.47353384
0.11157477 0.5708154 0.00050860597 -0.000396307 -0.0036320193 0.0013217244 0.0040015997 0.43617246
0.0014547994 -0.0033233801 -0.0005726408 0.42890266 0.13873783 0.001077999 -0.0020272264 0.001555329
-0.003635533 -0.0023678625 -0.002748025 0.0026854218 0.010164767 0.11489689 -0.0008082559 -0.0004958691
0.5182569 -5.9100512e-05 0.0015144179 -0.0003751825 0.000669564 -0.0014798064 0.0033832903 0.12496719
0.004091952 0.03867035 -0.00015085416 0.0015863595 -0.0001688613 0.002079278 0.00064697163 -0.0018725516
0.00048533693 -0.006335821 0.0012437957 0.6791778 -0.005113424 0.00079612475 0.10075125 0.2214208
0.0010351884 0.096338324 -0.0034380304 0.0766139 0.0011347309 -0.0032005718 0.2768333 -0.00050685543
0.0930835 0.08354113 0.0010950286 0.1672341 0.3834704 0.1607825 0.0029279552 0.002920927
0.36042073 0.0018056873 -0.0019577278 -0.0011907094 0.23573183 0.16344285 0.3896364 -0.003997361
0.05332835 -0.0009316541 -0.002333985 0.1356385 0.16886316 -0.00087361486 0.3257057 -0.0006684163

bn.bias f4 [128]
00000000: 285e 67bb e273 49bb 95ab ccba f4af 1d3b
00000010: 8cf0 9bbb db39 06bb 3d01 3dbd b857 c0bb
00000020: 5614 92ba f8f9 2cbd 17ed df3b df96 ca3d
00000030: 6e72 c43a e6c1 b23a 193a e2ba 773d 083b
00000040: 68dd 30be bfd1 4e3e ee02 bc3b bdc0 43bc
00000050: ba42 523b 06f4 8bbb a714 53bb a4c0 8b3b
00000060: d198 413b 9eb0 a6bb 519d f2bc c349 393e
00000070: d80e aeba ba36 3a3d db2e d63c 90f9 073e
00000080: 3c71 55b9 3040 213e daf8 e0bb 2c2d 8dba
00000090: 8c9d 0c3b bc10 e639 d232 4e3c cbce 7d3a
000000a0: 830a f2ba 51e6 413c 3710 ecbd 9095 4a3c
000000b0: cd6a 7b36 63e7 83bb c65d ec3d bd68 0d3e
000000c0: dd46 26bd 15d6 2fbe ac6c 5b3a e26c c03a
000000d0: 285a bcbb cf11 fc3a f06f 533c 6ff8 babc
000000e0: 341e 03ba 1065 03ba f410 37bb efe3 8e3d
000000f0: 38c3 5a3d 9b06 223b 26dc 48bb 40ef ac3b
00000100: f948 08bb b8c1 d039 2c35 4b3b 1258 0ebb
00000110: aef2 00bc 1bec 2cbc f762 2ab9 020a 9fba
00000120: a41d 7f3e ae1d ce3a f0e8 09ba 568d de39
00000130: 3186 3dbb 9e94 d5b9 4623 9739 6d27 853c
00000140: 54a8 adba b411 67bb e399 c7b9 0b06 5cbb
00000150: 0e89 e23a f2db a9ba 1c00 933b 1ff6 e0bb
00000160: 5e1d a5bb b381 b23a 4b9a 6ebb 767f bc3e
00000170: f8c3 4eba 7842 6d3a 7848 093d f2c1 223e
00000180: cbf0 593b d734 0a3c c907 a73b 74ca 683c
00000190: a09c afbb 6bb2 f13a 1801 3f3d 6dff 7a3b
000001a0: d550 36bc d5c3 ec3b ef20 823b a97a 3a3d
000001b0: 669e d63d a57f 023e 9311 8e3a d38b 8abb
000001c0: 6f95 4b3c ffd1 13b8 9047 35ba c6d8 0abb
000001d0: e70c 95bd feb7 cb3c 9389 0d3e b443 7e38
000001e0: 3fb0 123b 3366 5e3b 66f1 de3a 35e6 593d
000001f0: 318d 95bc 59e1 b1b9 62fb 783e 5f3d e03a
-0.0035303924 -0.0030739238 -0.00156151 0.0024061175 -0.0047589 -0.0020481262 -0.04614376 -0.005869832
-0.0011144977 -0.042230576 0.0068336832 0.098920576 0.0014987716 0.0013638109 -0.0017259746 0.002078859
-0.1727196 0.201972 0.005737654 -0.011947808 0.003208323 -0.004271033 -0.0032208355 0.004264908
0.0029540549 -0.0050869724 -0.02961603 0.18094544 -0.001327957 0.045462348 0.02614539 0.13278794
-0.00020355446 0.15747142 -0.006865603 -0.0010770909 0.002145621 0.00043881487 0.012585359 0.00096819986
-0.0018466268 0.011834697 -0.1152653 0.01236476 3.746408e-06 -0.004025386 0.11541323 0.13809486
-0.040594924 -0.1717151 0.00083703804 0.0014680887 -0.005748052 0.0019231382 0.012905106 -0.02282354
-0.0005001754 -0.0005012313 -0.0027933689 0.06977069 0.05340883 0.0024723175 -0.0030648797 0.0052775443
-0.0020795448 0.00039817183 0.0031007035 -0.0021719974 -0.007870359 -0.010554339 -0.0001624933 -0.001213372
0.24913651 0.0015725398 -0.00052608456 0.00042448443 -0.0028919096 -0.00040737254 0.00028827245 0.016254151
-0.0013249018 -0.0035258355 -0.00038070892 -0.0033572938 0.0017283277 -0.0012959226 0.004486097 -0.0068652774
-0.005038901 0.0013618976 -0.0036407884 0.36815995 -0.0007887478 0.0009050737 0.033516377 0.15894297
0.0033255096 0.00843545 0.0050973636 0.014208425 -0.0053592473 0.0018440014 0.046631902 0.0038299218
-0.01112767 0.0072254934 0.003971211 0.045527134 0.10479431 0.12744005 0.0010838978 -0.004228094
0.012425764 -3.5243105e-05 -0.00069152657 -0.0021186336 -0.072778516 0.024868008 0.13822012 6.0621373e-05
0.0022382883 0.0033935427 0.0017009198 0.05319806 -0.018255802 -0.00033927968 0.24314645 0.0017108134

bn.running_mean f4 [128]
00000000: c35c ba3e ed8e ff3e 7c42 8f3e 777b 723e
00000010: e6d3 c73e c0e4 743e 4481 7f3e ba23 b43e
00000020: 9e89 793f a0af 363f 1e18 9b3e 2142 e53e
00000030: bc65 913e 804d b43e b8c1 b53e d389 2e3e
00000040: 9440 5440 3e33 393f f99f c73e 862e 1d3e
00000050: d954 033f ad22 913f b2af 4a3f f036 083f
00000060: dae8 933e 65c5 e83e c1f1 3540 d06d 9a3f
00000070: 69a7 023f d4b6 c43f fb82 8b3f a069 0c40
00000080: f7c9 e93e 201d 1e40 7f72 ac3e a197 263f
00000090: 01ea c03e 5f06 bb3e bddf ed3f 2108 c03e
000000a0: 1fd2 a93e 8794 3b3f 1c0c a93e d389 8c3d
000000b0: 55ca 9c3e 1372 a43e aeb9 a03e 0c98 043f
000000c0: 6757 d23d 9664 b53f b6e1 733f bf20 e43e
000000d0: eb2f bf3e c6a2 9b3e bfe9 a83e b284 113f
000000e0: c388 493e 334c 013f 0b68 903e 0f2f 223f
000000f0: acc7 a83f cf0f a53e 57d0 0e3f bc77 093f
00000100: a7a2 953e 117e dd3e 6d99 083f 5574 f73e
00000110: 2c8d b93f 9c20 743e 77dd c83e bc3b 913e
00000120: b76c 5d40 cdf8 b83e 0ba0 f93e 9e7e 453f
00000130: dcdf e43f 8559 313f 4764 823e b04d f23e
00000140: b85e b63e 981e 0d40 31c2 eb3d ecf7 063f
00000150: 09b1 a93e 8bd1 0d3f c247 763e 3dea 4a3e
00000160: 6e56 283e 3f5b 173f 2b3f 3a3e 6905 cf40
00000170: 5f89 ee3e e2cc 433e 886c 0b3f 05ca 0040
00000180: 1bdb c33e 2d21 0b3f a3dd 1e3e 2b5b c43e
00000190: c3d5 ca3e 19f0 783e e4eb b03d 464e e03e
000001a0: 7dff 1c3e a042 cd3f 94fd 733e bf3a ac3e
000001b0: c1bb a43d 21f1 2340 0b80 213e 7dfb a23e
000001c0: 8060 6a40 45f9 9f3e 7dba 163f 549a cd3e
000001d0: 2ff8 583f 7203 c13d 5ca3 0d3f e309 853e
000001e0: 9eff ca3f b73e bc3e 3f23 193f 1102 cb3f
000001f0: 888e 513f 9491 c53e 4567 1c40 9745 4c3f
0.36398897 0.4991373 0.2798041 0.2367991 0.39028853 0.23915386 0.24951655 0.35183507
0.9747561 0.7136173 0.30291837 0.44777015 0.2839793 0.35215378 0.35499358 0.17044763
3.3164415 0.72343814 0.38989237 0.15349779 0.5130134 1.1338707 0.7917434 0.5320883
0.2888859 0.454631 2.8428805 1.2064762 0.510367 1.5368295 1.0899347 2.1939468
0.456619 2.4705276 0.33681104 0.6507512 0.3767853 0.36528298 1.8583905 0.37506202
0.33168122 0.7327351 0.3301705 0.068622254 0.30623117 0.32118282 0.31391662 0.51794505
0.10270577 1.4171321 0.9526628 0.44556233 0.37341246 0.30397624 0.32990834 0.568431
0.19681077 0.50506896 0.28204378 0.63353056 1.3185935 0.32238623 0.5578665 0.53698325
0.29225656 0.43260244 0.5335911 0.48330942 1.4496207 0.23840564 0.39231464 0.28365886
3.4597604 0.3612732 0.48754916 0.7714633 1.7880816 0.6927722 0.2546713 0.47324896
0.3561914 2.2049923 0.115116484 0.5272205 0.3314288 0.5539786 0.24050811 0.19815917
0.1643922 0.59123605 0.18188159 6.4694104 0.4658918 0.19121125 0.5446248 2.0123303
0.38253102 0.543475 0.15514235 0.38350806 0.39616212 0.2431034 0.086387426 0.43809718
0.15331836 1.6035957 0.23827201 0.3363857 0.08043624 2.5615923 0.15771501 0.31832495
3.66214 0.31244865 0.5887831 0.40156806 0.847537 0.09424485 0.5532739 0.25984105
1.5859258 0.36766598 0.59819406 1.5860006 0.8185811 0.3858763 2.443803 0.79793686

bn.running_var f4 [128]
00000000: 4f2b 143f 9be2 563f ab55 433e 5c11 333e
00000010: 6bb7 263f c5b2 723e 67f4 183f 051c c83e
00000020: c4d7 ba3f 284b c43f ef23 e33e 747a 533f
00000030: 90bd ac3e 6f33 db3e cc09 663e 9be1 803d
00000040: 35bb 0f41 c403 7f3f 4284 dc3f 5d52 863e
00000050: 21df ec3e 7832 0140 f894 503f 97c5 253f
00000060: f034 c93e 2e81 4e3f 1a10 5141 d2ea 4540
00000070: c359 8a3f efd4 a340 a664 5940 65e3 c740
00000080: cc2b 3c3f a347 a740 89a1 3d3e 8668 5c3f
00000090: 979b b13e 755c 473f 0c6a fa40 3206 043f
000000a0: 85ea 053f 1324 6b3f bf55 553f e3d7 203e
000000b0: 7816 133e 1c0c be3e 88b0 943f b6c1 d23f
000000c0: 5814 8b3e 775d 583f b5c0 b13f 2749 173f
000000d0: d29e 1d3f 1632 2f3e 5d92 c43e acd3 413f
000000e0: 7fd5 8f3d c8f7 f43e 0dd2 a73e 4ec9 0d40
000000f0: f9fc fc3f 37e7 203e 3e63 3a3f 5d25 3c3f
00000100: 3d3f b53e dd5d 1f3f 2ac3 823f d9ed 6f3f
00000110: 28d2 3940 5804 173f 9009 063f 6f77 6e3e
00000120: 5b25 a741 658e d43e 1028 523e 9dfa 6f3f
00000130: d927 8340 dad6 db3f 6b63 5c3e dc80 b23f
00000140: a356 1c3f 783b bb40 3868 6f3d 1732 e63e
00000150: 05eb db3e a0b6 053f fedf fa3d 84af 0b3e
00000160: 8a23 c23d a9c1 823f b5b1 e03d 9a08 8442
00000170: 751c 2f3f d6d5 1d3e cfc4 913f 6c50 9340
00000180: 271f 8b3e 3d50 b23f d0b7 c03d 7914 8c3f
00000190: a7c0 213f bf8a 523e ffa7 b73e b1d2 ab3e
000001a0: 3c4d 8e3e db44 0a41 eb69 653e c580 6c3f
000001b0: bdb9 053e eb7f 0841 3c35 c03d e186 5e3e
000001c0: 90da 1f41 47b1 253e c9a3 663f 5674 d83e
000001d0: 9a0a 5740 0385 6c3e 2c50 163f fde2 773e
000001e0: a641 c140 b905 f03e 66fc 123f d289 0041
000001f0: 0a6a 953f eb41 113f c358 2b40 24bc 733f
0.57878584 0.8393952 0.19075648 0.17487091 0.65123624 0.23701008 0.5974793 0.39083877
1.4597096 1.5335436 0.44363353 0.82608724 0.33738375 0.42812678 0.22464675 0.06293031
8.983205 0.9961512 1.7227862 0.26234713 0.46263984 2.0187054 0.8147731 0.64754623
0.392982 0.8066586 13.066431 3.0924573 1.0808643 5.119743 3.396768 6.246508
0.7350433 5.2274947 0.18518652 0.8609699 0.34689018 0.77875453 7.825445 0.51571953
0.52310973 0.9185192 0.83333963 0.15707354 0.1436404 0.37118614 1.1616373 1.6465366
0.2716396 0.84517616 1.3886935 0.59095997 0.61570466 0.1710895 0.38392916 0.7571361
0.07023143 0.47845292 0.32777444 2.2154117 1.9764701 0.15713201 0.7280768 0.7349451
0.3539981 0.622526 1.0215809 0.937223 2.903452 0.58991003 0.5235834 0.23287748
20.89324 0.41514888 0.20523095 0.9374178 4.098614 1.7174942 0.215223 1.3945575
0.610697 5.8510094 0.058449 0.4496009 0.42952743 0.5223179 0.12249754 0.13641173
0.09479435 1.021535 0.10971395 66.0168 0.68402797 0.15413603 1.1388186 4.603567
0.27172205 1.3930737 0.094100595 1.0943748 0.6318459 0.2056074 0.35870358 0.33559182
0.277933 8.64181 0.22403686 0.92383987 0.13059135 8.53123 0.09385154 0.2173114
9.99086 0.16180907 0.90093666 0.42276257 3.360022 0.23097615 0.5871608 0.24207683
6.0392637 0.46879366 0.5741638 8.033648 1.1672986 0.5674121 2.6772926 0.95208955

fc2.weight f4 [128, 130]
00000000: 487a 4627 cc8e 4aa7 5e68 0fa5 bcaa b524
00000010: 7674 1726 45b3 de25 596e 0ebb b250 b5a6
00000020: a02a d3a6 8f54 3e39 56f0 0427 2af7 c4ba
00000030: 2d03 d8a6 618c 80a6 57a7 a6a6 5775 9aa3
00000040: be80 273b 7bf7 2dbb 9f9b 9436 8fdb 9836
00000050: 1afd 1a28 8f53 8626 56b6 29a5 39b2 b0a5
00000060: 07bd 1f27 cf91 6a24 8f32 2ebc eced 563b
00000070: 1fca f426 17c7 cab4 7a7e 9436 7cf3 27ba
00000080: 79c4 a627 254a 05ba 8618 59a7 881d afa7
00000090: 921f 6727 38ba c7a6 d1d2 6ab8 8b74 2727
000000a0: d416 17a4 0c74 c5a6 a867 28bb e29e 10ba
000000b0: 3d7e cf25 94b0 3326 47b5 19bc a00b 44bc
000000c0: f4eb 5b38 96da d3bb 2d19 20a5 bd36 5a27
000000d0: 024d 2aa7 eca1 b521 d94b c8a6 f640 30bc
000000e0: cb47 7aa6 0a46 4427 f7eb 9ba6 ab11 01bc
000000f0: 727d 4cba 8255 4ea4 74c7 01a7 579c 0326
00000100: 690e 08a6 ad72 c6a6 ffb4 c6a0 07bf a426
00000110: f9e9 b024 3fd6 a9b9 cc63 3ba7 c608 c8a4
00000120: 692c 41ba 8be1 41a7 06e7 5627 ce7d 80a6
00000130: 1b94 29a5 6363 6128 c57c 0227 7b99 fd37
00000140: 6e6e 5d26 8267 732f 1b12 d225 50d0 07a8
00000150: b9fc 4b27 2ec9 21a6 868c 6226 575a ef25
00000160: 01b7 3b25 e3da 98a6 3b3b 1027 4ba4 23bb
00000170: 1e3a d7a6 111f 85a6 afc6 4332 d818 37bb
00000180: c35e 3026 e16d aa39 3dd3 9126 16b3 2838
00000190: 2430 1ba6 6791 1fa7 2852 53bb 999a 9b23
000001a0: 7099 6539 f871 4036 b6d1 db25 b321 c1b9
000001b0: af24 61bc edcb e5ba b435 82a6 7826 b0a6
000001c0: 0e7a 883b 2806 a0a6 d25f 3da7 be1d de25
000001d0: daa1 02bc b1a3 e2ba fb7f 3abb bf58 46a4
000001e0: 2ed6 f72d bc7e 1ea7 57e9 9d27 b3f2 75b4
000001f0: 56ed e53a ee76 19a8 e22c dcbb 22eb 7522
00000200: 26bb 1dbc 30c2 3739 4cee 3880 c6d6 1d80
00000210: 1c7c 0400 9e20 0d00 bacd 1200 cc77 4900
00000220: 9ea2 cb10 b120 2400 9291 5000 8eaa 2280
00000230: db21 1d00 b08c 1a00 ea01 1700 1773 3f00
00000240: 3ef9 3100 859e 4880 3792 cb19 a375 efa2
00000250: 8421 2380 ff4f 0e00 5e23 4e00 e8aa 0380
00000260: c7c9 4b00 8978 5180 b47f 0e80 79db 4100
00000270: abfd 8033 a1a2 dc31 49c9 1000 43b2 1b00
00000280: 68a7 4780 6ad1 3780 b628 1e00 d0a3 9891
00000290: 8949 0b80 0ba1 4000 7bc6 4800 585b 2e80
000002a0: 9f19 1f80 46b5 1d80 7037 0380 0a1f 4300
000002b0: c256 a687 b8d9 2080 1ddf 1900 97d7 3980
000002c0: 1ee4 15ae 0d4c b295 08a0 1380 b74b c22e
000002d0: ff0d 1e00 c290 5080 2ca6 3280 a243 4c00
000002e0: 8db1 1280 c2c1 2a33 2e5a 3880 85c5 0400
000002f0: afd4 3b80 d0f6 ebb0 9163 3780 b9f3 3b00
00000300: 0e27 0980 e46a 1880 ee73 3180 c8f3 0100
00000310: e907 1880 901f 2c00 8d5f 4a00 13cb 0781
00000320: f4e2 3580 d768 0980 2849 58ad 73b5 4b80
00000330: 1c46 3300 890d 3180 9ba3 4b80 f289 4080
00000340: 83f4 4680 3528 2900 8d42 0080 e5ee 1080
00000350: c9c3 1980 b4e9 2980 10e2 1900 b795 0380
00000360: 3d8e 1e80 d5f2 4200 240b 1a80 c9ba 1a00
00000370: 5a05 3480 463d 51b1 8c3a 5000 2b3b 1300
00000380: b8b5 0980 0f43 3280 1705 4400 b767 3080
00000390: 87e1 0480 97a0 1680 3165 0800 a37d 2c80
000003a0: c7c8 e899 0d48 3680 e97e 3d0b 52fa 2d80
000003b0: 38b1 2f80 b002 931a 5c56 d508 a224 488d
000003c0: 1d0d 5100 d728 0000 ec27 1226 2d51 4500
000003d0: 2807 4100 973e 4200 2657 359a 066e 4700
000003e0: fbaa 0c9f c6b8 5100 0f01 1a80 b9c1 1800
000003f0: 5f09 4180 7ad7 0280 1660 a41b 73b3 1500
2.7544309e-15 -2.8110542e-15 -1.2438634e-16 7.878547e-17 5.2546483e-16 3.863234e-16 -0.0021733253 -1.258127e-15
-1.465262e-15 0.00018151313 1.8448966e-15 -0.0015027274 -1.4988872e-15 -8.919834e-16 -1.1563921e-15 -1.6746409e-17
0.0025558914 -0.0026545215 4.4288604e-06 4.555513e-06 8.6036e-15 9.320766e-16 -1.4720191e-16 -3.0651902e-16
2.2168155e-15 5.0864166e-17 -0.010632171 0.003279562 1.6985686e-15 -3.777029e-07 4.4254675e-06 -0.00064068264
4.628727e-15 -0.0005084596 -3.0128094e-15 -4.8604275e-15 3.2074804e-15 -1.3858874e-15 -5.5986286e-05 2.3239084e-15
-3.2762242e-17 -1.3701076e-15 -0.002569655 -0.00055168394 3.5994318e-16 6.234241e-16 -0.009381599 -0.011965662
5.2433417e-05 -0.0064652665 -1.3886318e-16 3.0283251e-15 -2.3633985e-15 1.2307897e-18 -1.3898346e-15 -0.010757675
-8.683347e-16 2.7238432e-15 -1.0819244e-15 -0.0078777475 -0.0007800675 -4.4741557e-17 -1.801047e-15 4.5661635e-16
-4.720401e-16 -1.3770093e-15 -3.3662278e-19 1.1431564e-15 7.67242e-17 -0.00032393818 -2.6005563e-15 -8.6751037e-17
-0.00073689834 -2.6906398e-15 2.9823704e-15 -8.915884e-16 -1.4708593e-16 1.251156e-14 1.8108762e-15 3.023142e-05
7.682444e-16 2.2137495e-10 3.6441462e-16 -7.539176e-15 2.830891e-15 -5.6130745e-16 7.8599946e-16 4.1521108e-16
1.6281669e-16 -1.0606448e-15 2.0016123e-15 -0.0024969752 -1.4934375e-15 -9.237149e-16 1.1395669e-08 -0.0027938392
6.119069e-16 0.00032506793 1.0118652e-15 4.0221108e-05 -5.384167e-16 -2.2144505e-15 -0.0032245014 1.6870608e-17
0.00021896302 2.8676568e-06 3.813255e-16 -0.00036836936 -0.013741656 -0.0017532088 -9.035118e-16 -1.222288e-15
0.0041649407 -1.1103899e-15 -2.6280963e-15 3.8531015e-16 -0.007973159 -0.0017291215 -0.002845763 -4.3009577e-17
2.8175764e-11 -2.1995608e-15 4.382924e-15 -2.2905697e-07 0.0017542045 -8.518995e-15 -0.0067192176 3.332817e-18
-0.009627139 0.0001752458 -5.228273e-39 -2.740276e-39 4.11864e-40 1.205562e-39 1.72684e-39 6.746966e-39
8.0319933e-29 3.317805e-39 7.39906e-39 -3.18359e-39 2.675374e-39 2.438192e-39 2.112903e-39 5.826923e-39
4.58935e-39 -6.669022e-39 2.1048764e-23 -6.4905633e-18 -3.226266e-39 1.314394e-39 7.175856e-39 -3.36816e-40
6.960046e-39 -7.481915e-39 -1.331508e-39 6.048039e-39 6.0066064e-08 6.4213315e-09 1.541575e-39 2.543507e-39
-6.580374e-39 -5.126076e-39 2.769669e-39 -2.4082329e-28 -1.03657e-39 5.935243e-39 6.683357e-39 -4.257201e-39
-2.856091e-39 -2.728258e-39 -2.95394e-40 6.164113e-39 -2.5027896e-34 -3.016839e-39 2.375925e-39 -5.311962e-39
-3.4081286e-11 -7.2013614e-26 -1.802283e-39 8.835548e-11 2.760086e-39 -7.398769e-39 -4.651386e-39 7.00376e-39
-1.716732e-39 3.975743e-08 -5.175138e-39 4.38199e-40 -5.494591e-39 -1.7168649e-09 -5.08667e-39 5.505725e-39
-8.4053e-40 -2.242397e-39 -4.541527e-39 1.79288e-40 -2.20689e-39 4.052084e-39 6.830104e-39 -2.4941283e-38
-4.948697e-39 -8.64129e-40 -1.2294422e-11 -6.952754e-39 4.708761e-39 -4.504795e-39 -6.946353e-39 -5.926957e-39
-6.516199e-39 3.779679e-39 -2.3874e-41 -1.555067e-39 -2.366122e-39 -3.849092e-39 2.376983e-39 -3.29214e-40
-2.80609e-39 6.148254e-39 -2.39172e-39 2.454729e-39 -4.777366e-39 -3.0448333e-09 7.367842e-39 1.7661e-39
-8.91708e-40 -4.615831e-39 6.24664e-39 -4.44531e-39 -4.48246e-40 -2.07799e-39 7.70985e-40 -4.085832e-39
-2.4069331e-23 -4.984964e-39 3.6495553e-32 -4.222395e-39 -4.379842e-39 6.080212e-23 1.2839774e-33 -6.1673853e-31
7.44338e-39 1.465e-41 5.070803e-16 6.36577e-39 5.971874e-39 6.083596e-39 -3.750032e-23 6.559789e-39
-2.9787585e-20 7.50496e-39 -2.388103e-39 2.273547e-39 -5.972669e-39 -2.6097e-40 2.7193618e-22 1.99292e-39

fc2.bias f4 [128]
00000000: 85c3 4fbd d009 d9b7 3827 6abe e4fc d69d
00000010: ecaf 4fbe de57 60bc 388f 94be 081d a2bd
00000020: c842 3db9 5a31 43bd 9f03 d2b1 2f79 03be
00000030: 74d3 f8bd 2dce 85bc b809 a8bd d077 21bd
00000040: be2e 09be 8f16 5da6 b0fa 2cbe 14ae 53be
00000050: 1557 52be 4202 efb2 e655 98bd 7c81 8ebe
00000060: e310 2cbd 2e58 1db7 a49c 50b0 ca90 75bd
00000070: 9268 55b8 dff4 84a2 4b23 7289 2c3b 46be
00000080: d594 43bd b5ac abbe d04b f7ba c097 f1bc
00000090: 1a0d 15bd 0ac8 a8bd 2a15 83be c35b 0dbd
000000a0: eccc 9cbd 1c75 10be 01c3 69be 6cdd c9a8
000000b0: 30ae 01be fba7 07bd 476b 8bbb 46b7 29be
000000c0: 796c 90be 5432 8abc c8dd 9fbd b43e 07bc
000000d0: b8df 57b7 6250 54bd c337 5bbe 67f4 8ebe
000000e0: 5cc8 98be 7a81 5ab6 420f b3bd c563 313e
000000f0: 8d8b 86b8 899d 4abe 150f 80bd b39d b1bc
00000100: 8b24 adb5 e1ca 6fbe b3c6 90b6 5e85 1cbd
00000110: e57d d3bc cb83 78be 08fa 9b3a adec 32be
00000120: 82ce ccbd f003 ebbb 853e cbbe cbd6 e8ad
00000130: c2ad d7af f5bd 9fba 47bf 0abf c8bc cfbe
00000140: 1343 b7b7 c6f2 9397 c6c9 50bd 99f5 c1b7
00000150: d251 2abc 4eb1 59bd 8ea7 24ae a2d3 8ead
00000160: 3ce5 97bd 3778 68bd a429 89bd 08e5 7cbe
00000170: 9778 adbb 6bc7 3dbd 37fc 3bbd e2fc c1bd
00000180: 6e95 aa3d 37fb 69a3 117f a4bb f8b2 eeac
00000190: cb71 2abe 2e35 e7ae 2f01 30a5 f260 12be
000001a0: a4ff 06be a04c 26bd 7848 79bd 8dec 59be
000001b0: 3d82 40be 9165 57bd 1420 88bd 1907 b4bc
000001c0: 7100 ccaa d210 99ba 6b54 5fbe a515 30be
000001d0: 7079 0cb2 f5ae fbb9 64bc f0bd a16c 90be
000001e0: cf9b 453e 67eb 86bd f61a 02bb 1eb9 37bd
000001f0: 94fe 6dbe 5638 70be 293f b5b6 f1b8 e2b7
-0.05072357 -2.5872985e-05 -0.22866523 -5.690681e-21 -0.20281953 -0.013692824 -0.29015517 -0.079156935
-0.00018049323 -0.047654487 -6.112216e-09 -0.12839197 -0.121497065 -0.016333664 -0.08204979 -0.039420903
-0.13396737 -7.670535e-16 -0.16892505 -0.20671874 -0.20541032 -2.7824289e-08 -0.07438259 -0.27833164
-0.042008292 -9.37846e-06 -7.589256e-10 -0.059952535 -5.0880546e-05 -3.603794e-18 -2.9146285e-33 -0.1935851
-0.04774936 -0.33530203 -0.0018867198 -0.029491305 -0.036389448 -0.082412794 -0.25602084 -0.03451134
-0.07656273 -0.14107174 -0.22828294 -2.241151e-14 -0.12664104 -0.033119183 -0.004254732 -0.1657382
-0.28207758 -0.016869701 -0.07805973 -0.008254696 -1.2867087e-05 -0.05183447 -0.2140799 -0.2792084
-0.29840362 -3.2559897e-06 -0.087431446 0.17323215 -6.415611e-05 -0.19786657 -0.06252877 -0.021681642
-1.290014e-06 -0.23417236 -4.314666e-06 -0.038213126 -0.025816867 -0.24269025 0.0011900077 -0.17473097
-0.10000326 -0.0071721002 -0.39696136 -2.6470734e-11 -3.9231735e-10 -0.0012187349 -0.54198116 -0.40573716
-2.1846534e-05 -9.560937e-25 -0.050973676 -2.3121758e-05 -0.010395484 -0.053147607 -3.74381e-11 -1.6237515e-11
-0.0741677 -0.05675527 -0.066973954 -0.24696743 -0.0052939164 -0.046332758 -0.045894828 -0.09472062
0.08329283 -1.2684152e-17 -0.0050200303 -6.7842364e-12 -0.16644971 -1.05141104e-10 -1.5265968e-16 -0.14294794
-0.13183457 -0.04060042 -0.060860127 -0.21281643 -0.18799682 -0.052587096 -0.066467434 -0.02197604
-3.6237986e-13 -0.0011677986 -0.21809547 -0.17195757 -8.176684e-09 -0.00048004804 -0.11754683 -0.28207877
0.19297718 -0.06587868 -0.0019852496 -0.044854276 -0.23241645 -0.2345899 -5.401573e-06 -2.702742e-05

fc3.weight f4 [1, 128]
00000000: c318 7a3c 3b07 7cba 999b bdbd 9117 d9b7
00000010: 0bc1 8bbe 22f5 ebb9 bba5 f63d 8bec 22bb
00000020: 029f 8738 65ed 0a3c b9d3 9737 5910 db3c
00000030: c9bf 153d 923d ee3b 5a76 2b3d 55af 6bba
00000040: d4ea 6b3e 5801 8bb6 2c96 e7be 9b09 96be
00000050: 8f7d 713d 6ab1 96b9 6787 393c b339 053e
00000060: 49de 273d f1c2 9937 680f d2b8 945d 23bb
00000070: b1f6 f5bb be71 9336 b131 2435 d5a9 5fbe
00000080: c9d2 233b 56f0 62be 64a1 0e3b 34f8 e23b
00000090: ab22 94bb 8fe7 a63e 502b 623e 95af 33bb
000000a0: e14a 083e 2e99 07be 4b1f 783e 028a d2b8
000000b0: d7da 063e ff23 a73a 79e8 903b 75b8 96be
000000c0: 86b1 87be 922d 393b 9120 983d e478 36ba
000000d0: 304e dc3a be68 153d 7b82 b13d eefa 7cbd
000000e0: 039a 183e 50ce 2aba 555d c73b 1664 c63d
000000f0: 8bdf 993b f642 0abe 1bb7 56b9 02bb faba
00000100: f477 98ba 7def 373e b21a abba b873 bb3b
00000110: b1d5 5f3a 9da8 97be 35a0 d039 a405 e23d
00000120: 07ba 21bd 9b2d bfbd 402c 12be 80ab 5a32
00000130: 4100 adb9 7467 b9ba f756 2f3e bea2 b93e
00000140: e2f9 c1ba 9a89 c136 4c04 fbba 2bfb 66b9
00000150: 4915 743b 1a1f 823d 5a37 b131 c97c bdb8
00000160: 9352 bdbd 855c 253b 00fd 973c 63ef 47be
00000170: 1065 e2ba 1e3a d23a 7fb0 c23a 0276 cd3d
00000180: ed90 c33d b824 a932 6f32 193d 299e 46b6
00000190: 71ca 3c3d 4248 9736 c88c 84b0 7273 babd
000001a0: 3cbb c7bc 0a83 0fba b2c3 45bd 572e b7be
000001b0: 7ee7 35be 8e29 9fba 05c9 023b 294f ad3c
000001c0: 7c24 7bb9 706e 8b3a 2604 843d f012 093f
000001d0: 2e25 7e38 1d27 e0ba caec 83be ba14 8abe
000001e0: a09e 523d a097 09bb 8e02 92b9 c126 9dba
000001f0: 7842 b53d fe7c 11be 0511 dfb9 29cf c0b7
0.015264693 -0.00096141145 -0.092581935 -2.587939e-05 -0.27295718 -0.0004500533 0.12043329 -0.002486023
6.466919e-05 0.008479451 1.8099194e-05 0.026741194 0.036559854 0.0072705233 0.041860916 -0.0008990665
0.23038799 -4.1426792e-06 -0.4523176 -0.29304203 0.058957633 -0.00028742413 0.011323786 0.13010292
0.040983472 1.8329798e-05 -0.0001001645 -0.0024927603 -0.0075062145 4.3941827e-06 6.116707e-07 -0.2184213
0.0024997464 -0.22161993 0.0021763677 0.006926561 -0.0045207343 0.3259854 0.22086835 -0.0027417887
0.13309814 -0.13242027 0.24230687 -0.00010039286 0.13169418 0.0012751817 0.004422244 -0.29437605
-0.26502627 0.0028255922 0.074280865 -0.0006960763 0.001680797 0.036476843 0.08667465 -0.061762743
0.14902501 -0.00065157283 0.006084124 0.09687059 0.004695838 -0.13502106 -0.00020476842 -0.0019129219
-0.0011632429 0.17962451 -0.001305422 0.005720582 0.00085386174 -0.2962083 0.00039792215 0.11036232
-0.03948405 -0.093348704 -0.14274693 1.2728265e-08 -0.0003299732 -0.0014145211 0.17123018 0.36256975
-0.0014799202 5.767867e-06 -0.0019151061 -0.00022028077 0.0037244132 0.063535884 5.1576707e-09 -9.035465e-05
-0.092442654 0.0025232148 0.018553257 -0.19524913 -0.0017272551 0.0016039049 0.0014853625 0.10032274
0.09549127 1.9690887e-08 0.037401613 -2.959636e-06 0.0460915 4.5085626e-06 -9.644276e-10 -0.09104051
-0.024381272 -0.00054745434 -0.048282333 -0.35777542 -0.17764089 -0.0012143122 0.0019956243 0.02115591
-0.00023950817 0.0010637771 0.06446104 0.5354452 6.0592945e-05 -0.00171015 -0.25766593 -0.26968938
0.051420808 -0.0020994917 -0.00027849193 -0.0011989699 0.088505685 -0.14207837 -0.00042546555 -2.298465e-05
