data/checkpoint_actor.pth (torch_old, 86662 bytes, 18 tensors)

bn1.weight f4 [24]
0	0x3eb608b4	0.35553515
1	0x3f2812fd	0.65653974
2	0x3db62d74	0.08895388
3	0x3dea2ef0	0.11434734
4	0x3eef12a9	0.46693924
5	0x3f34fac3	0.7069513
6	0x3e3f2b03	0.18668751
7	0x3f3ba63b	0.7330052
8	0x3eded2e5	0.43520275
9	0x3f10549d	0.5637911
10	0x3e86f4ef	0.26358745
11	0x3e9d644e	0.3074059
12	0x3d73219c	0.059358224
13	0x3e491605	0.19637306
14	0x3e4d5c6b	0.20054786
15	0x3ed05eba	0.4069727
16	0x3f21a6fe	0.63145435
17	0x3f446f7b	0.76732606
18	0x3e159025	0.14605768
19	0x3e854878	0.26031852
20	0x3f589d58	0.8461509
21	0x3f7a9902	0.9788972
22	0x3e9383ff	0.28811643
23	0x3f388f45	0.7209361

bn1.bias f4 [24]
0	0x3d121ae6	0.035670184
1	0x3d8af4b6	0.06784956
2	0x3cfd4c89	0.030920284
3	0xbd110018	-0.03540048
4	0xbc02a809	-0.007974633
5	0x3c14ae1e	0.009074716
6	0x3bec6691	0.0072143753
7	0xbda1581f	-0.07878136
8	0xbc716c7e	-0.014735339
9	0xbbad4d49	-0.005288754
10	0x3c072aac	0.00824992
11	0x3c8b0bc1	0.016973378
12	0x3d2c4075	0.04205366
13	0x3d573abb	0.052546244
14	0x3cc81356	0.024423283
15	0xbda09a60	-0.07841945
16	0x3d0028c2	0.03128887
17	0xbd027ea9	-0.031859074
18	0x3d042f5b	0.032271724
19	0x3b48fd28	0.003066847
20	0x3b896668	0.004193116
21	0x3d86967c	0.06571671
22	0x3c49ae84	0.012309674
23	0xbd080915	-0.033211786

bn1.running_mean f4 [24]
0	0xc0c684f8	-6.2037315
1	0xbf36232c	-0.7114742
2	0x4092b428	4.5844917
3	0xbd6e7b48	-0.05822304
4	0xbc704c88	-0.014666684
5	0x403ec1d5	2.9805806
6	0x4092b428	4.5844917
7	0xbd6e7b48	-0.05822304
8	0xc0c9a930	-6.301903
9	0xbf395c50	-0.7240648
10	0x408bf214	4.3733006
11	0xbddb262c	-0.1070064
12	0xba3946b6	-0.00070677267
13	0x403f1e1a	2.9862123
14	0x408bf214	4.3733006
15	0xbddb262c	-0.1070064
16	0xc0cabfcc	-6.3359127
17	0xbf3a61f1	-0.72805697
18	0x409a1e78	4.8162193
19	0xbdbbaa76	-0.09163372
20	0x3b5e4418	0.0033915099
21	0x403c6118	2.9434261
22	0x409a1e78	4.8162193
23	0xbdbbaa76	-0.09163372

bn1.running_var f4 [24]
0	0x41829c9a	16.326466
1	0x3f8e506a	1.111829
2	0x43bacc48	373.59595
3	0x41389abb	11.537776
4	0x41f1f1fa	30.243153
5	0x4057e5d8	3.3734035
6	0x43bacc48	373.59595
7	0x41389abb	11.537776
8	0x4182aebd	16.335321
9	0x3f8f8b1a	1.1214325
10	0x43be7919	380.94608
11	0x4140295c	12.0100975
12	0x41f7302f	30.898527
13	0x405869c9	3.3814566
14	0x43be7919	380.94608
15	0x4140295c	12.0100975
16	0x41835bda	16.41985
17	0x3f90a96c	1.1301703
18	0x43c18c4f	387.09616
19	0x4140f5bf	12.059997
20	0x41fbaad0	31.458405
21	0x4060c6b6	3.5121284
22	0x43c18c4f	387.09616
23	0x4140f5bf	12.059997

fc1.weight f4 [128, 24]
0	0xbc1342fa	-0.008988136
1	0xbd4deb69	-0.050273333
2	0x3d7562bf	0.059908625
3	0xbd95e909	-0.073198386
4	0x3cd650ba	0.02616154
5	0xbc64b3b7	-0.013958863
6	0xbbea3f02	-0.0071486244
7	0x3c4bd0c0	0.012439907
8	0x3d6ea659	0.05826411
9	0xbce1b0d8	-0.027550146
10	0x3c1e3869	0.009657004
11	0xbb62d2e2	-0.003461056
12	0xbc93bd0c	-0.01803448
13	0xbb911091	-0.0044270237
14	0x3c45b1c6	0.01206631
15	0x3c9e4c70	0.019323558
16	0x3c881e9a	0.016616154
17	0x3db9e80b	0.09077462
18	0x3d8c5936	0.06852953
19	0x3d3c1bab	0.045924824
20	0x3d32b211	0.04362685
21	0xbd4c5d2c	-0.049893543
22	0xbd264f90	-0.04060322
23	0xbb0f3dba	-0.002185686
24	0xbcf332d3	-0.02968732
25	0xbd2d6837	-0.042335715
26	0x3dc2967c	0.09501359
27	0x3d70abe0	0.058757663
28	0x3ddc2885	0.10749916
29	0xbe2e526d	-0.1702363
30	0x3db731bb	0.08945032
31	0x3d79991b	0.06093703
32	0x3d69602a	0.056976475
33	0xbd01c4a6	-0.03168168
34	0xbbf54ff7	-0.007486339
35	0xbd5910ec	-0.052994654
36	0x3c80ea44	0.015736707
37	0xbdb04d20	-0.086084604
38	0xbda6f3b8	-0.081519544
39	0x3d26249c	0.040562257
40	0x3d27dd50	0.040982544
41	0xbd201598	-0.039083093
42	0x3d0e60d1	0.0347603
43	0xbd1d4f1b	-0.03840552
44	0xbda08cb9	-0.07839341
45	0xbbbde7ce	-0.0057954555
46	0x3d28f887	0.04125264
47	0xbd5c97dc	-0.053855762
48	0xbd7741bb	-0.06036542
49	0xbc955357	-0.018228216
50	0x3cd8e9de	0.026478704
51	0x3d74ebbb	0.059795123
52	0x3da150bf	0.07876729
53	0xbcf1527e	-0.02945828
54	0xbbc398a8	-0.005969126
55	0xbcb27d76	-0.02178834
56	0x3c3d9091	0.011570112
57	0x3c060d07	0.008181817
58	0xbd4c0f65	-0.04981937
59	0xbcff6504	-0.031176098
60	0xbd020017	-0.031738367
61	0xbd7ea1ea	-0.062166132
62	0x3be9a508	0.007130269
63	0x3c496c53	0.012293893
64	0x3b7a380c	0.003818038
65	0x3d9be40d	0.076118566
66	0xbca3fbd5	-0.020017544
67	0x3d4f9532	0.050679393
68	0x3c953c2f	0.018217174
69	0xbde5035d	-0.11182282
70	0x3c69da7e	0.014273284
71	0x3daef1a8	0.08542186
72	0x3d8ab7f3	0.06773367
73	0x3c2969b5	0.010340144
74	0x3ca8aec0	0.02059114
75	0xbd353f81	-0.044250015
76	0x3db95a29	0.090504
77	0x3d659a7c	0.05605553
78	0x3d87aeea	0.06625159
79	0x3cc8d59a	0.024515916
80	0x3d38772d	0.04503553
81	0xbd42c9d7	-0.04755577
82	0x3dbb0c71	0.091332324
83	0xbd8dda4c	-0.069264024
84	0xbaf6650b	-0.0018798424
85	0xbd65cc31	-0.056102935
86	0xbc48ab23	-0.012247833
87	0x3c5355e0	0.012898892
88	0x3ca59187	0.020210994
89	0x3b3292e7	0.0027248205
90	0x3da71d30	0.08159864
91	0xbcffe4a5	-0.031236956
92	0xbde442d0	-0.11145556
93	0xbc9800b1	-0.018555017
94	0x3df0591e	0.11735748
95	0xbb0bbaf6	-0.0021321154
96	0xbd4b2359	-0.049594257
97	0x3cffd815	0.031230966
98	0x3d8896d6	0.06669395
99	0x3de63b55	0.112417854
100	0xbd15b69a	-0.036551096
101	0xbddec030	-0.108765006
102	0xbcd4c25b	-0.025971582
103	0xbcabcc84	-0.020971544
104	0xbe0b3d3e	-0.13597581
105	0x3d5d99f8	0.054101914
106	0xbd825ad5	-0.06364981
107	0x3cb52bf1	0.02211568
108	0x3dbcde51	0.09222091
109	0x3d445251	0.047930066
110	0x3cafbf59	0.021453546
111	0x3beb77f0	0.0071859285
112	0xbe0148cb	-0.12625425
113	0x3daf5e4c	0.085629076
114	0xbd908642	-0.07056858
115	0x3d655531	0.055989448
116	0x3d7268dc	0.059182033
117	0xbd58eee7	-0.05296221
118	0xbd1f6b82	-0.038920887
119	0x3d132878	0.035927266
120	0xbd40941c	-0.047016248
121	0x3d322ef4	0.04350181
122	0xbc5776a2	-0.013150843
123	0xbdd54939	-0.10414357
124	0x3d974abc	0.07387301
125	0x3c41970b	0.011815797
126	0xbc4b78a1	-0.012418897
127	0x3c1da590	0.009621993
128	0x3cebc864	0.028782077
129	0x3c35aa7e	0.011088012
130	0xbd96ca08	-0.07362753
131	0xbcd1a757	-0.02559249
132	0xbd4a6c4e	-0.049419694
133	0xbde6542c	-0.11246523
134	0xbcbb1ec1	-0.022841813
135	0xbce6c498	-0.028169915
136	0xbe0ec914	-0.13943893
137	0x3d47379f	0.04863703
138	0xbd047aa7	-0.032343533
139	0x3bed9c51	0.0072513004
140	0xba368d67	-0.00069638196
141	0xbdb4690d	-0.08809099
142	0xbc5c08c6	-0.013429826
143	0x3aeba565	0.0017978369
144	0xbd8369e2	-0.0641668
145	0xbd7147b7	-0.058906283
146	0x3d4be7a8	0.04978147
147	0x3d937d99	0.0720169
148	0xb8093785	-3.2715052e-05
149	0x3d4eb3f7	0.050464597
150	0xbd1a5699	-0.037680242
151	0x3b7bc4fd	0.0038416975
152	0xbd130e14	-0.035902098
153	0x3d9cd840	0.07658434
154	0x3c65ba1c	0.014021423
155	0x3dc12d13	0.09432425
156	0xbafe8057	-0.001941691
157	0xbd9ab8cd	-0.07554779
158	0x39ad7539	0.0003308447
159	0x3debd4d2	0.11515202
160	0x39f7dcd4	0.0004727604
161	0x3dc193e4	0.09452036
162	0x3da39dd3	0.07989087
163	0xb9903905	-0.00027508303
164	0x3d7aee42	0.061262377
165	0xbd2c4a49	-0.04206303
166	0xbc6d60a2	-0.014488371
167	0xbbe793f9	-0.0070672003
168	0x3d5598af	0.052147564
169	0xbcd3d519	-0.025858449
170	0x3d75a301	0.059969906
171	0x3c961677	0.018321259
172	0xbd7ba44a	-0.061435975
173	0x3d80482c	0.06263766
174	0xbd08713a	-0.033311106
175	0x3c9879bf	0.01861274
176	0x3b849cd8	0.0040470175
177	0xbdabd2ab	-0.08389791
178	0x3d851f76	0.06500141
179	0x3cc42fc3	0.023948556
180	0x3c86ed9b	0.016470721
181	0x3d22fb8e	0.039790682
182	0xbd830326	-0.06397085
183	0xbd66ed81	-0.056378845
184	0xbbb60249	-0.0055544716
185	0x386ad7db	5.599098e-05
186	0x3c84120e	0.01612189
187	0x3d9e267e	0.077221856
188	0x3e41041e	0.18849227
189	0xbd8452b3	-0.06461086
190	0x3d44b958	0.04802832
191	0xbd390909	-0.045174632
192	0x3d78f304	0.060778633
193	0x3c9871f0	0.018609017
194	0x3d16a0ad	0.036774326
195	0x3c44007b	0.011963005
196	0x3d189c42	0.037258394
197	0xbd95d4de	-0.07315992
198	0x3cd1d7d6	0.025615614
199	0x3d234c71	0.039867822
200	0xbc154db7	-0.009112767
201	0x3db99cbe	0.09063099
202	0x3d65ad95	0.056073744
203	0xbc00f86d	-0.007871729
204	0x3cc466a9	0.023974733
205	0xbda5cd9f	-0.0809586
206	0x3d4fa329	0.05069271
207	0xb8bc31cb	-8.973813e-05
208	0x3ca519b0	0.02015385
209	0x3dd0468b	0.10169705
210	0x3baa513f	0.0051976736
211	0x3bba3f27	0.005683798
212	0xbc938adf	-0.018010555
213	0xbe0ab8f1	-0.13547112
214	0xbdf26e2b	-0.11837419
215	0xbbe1e5ca	-0.006893848
216	0xb83ec261	-4.548056e-05
217	0x3ab569d9	0.0013840749
218	0xbda87df6	-0.0822715
219	0x3d2f668f	0.042822417
220	0x3de4ec7c	0.11177918
221	0x3d025a0b	0.031824153
222	0x3d55cbb3	0.052196216
223	0x3d389d18	0.04507169
224	0x3dd8418d	0.10559378
225	0x3cbe43b5	0.023225645
226	0xbd01b41e	-0.031665914
227	0x3d7c8d59	0.061658237
228	0xbda700f2	-0.08154477
229	0x3d2d6843	0.04233576
230	0x3db47525	0.08811406
231	0xbc3a46f1	-0.011369453
232	0x3c733d66	0.0148461815
233	0xbcd83a54	-0.026395
234	0x3cd69998	0.026196286
235	0xbd438f11	-0.04774386
236	0xbcefdaab	-0.029279074
237	0x3d3e1c2c	0.046413586
238	0x3d52bd3a	0.05144999
239	0x3d1746f3	0.036932897
240	0xbd998248	-0.07495552
241	0xbcbd7b96	-0.02313022
242	0x3d3d5eef	0.046233114
243	0x3cb556da	0.02213614
244	0xbd776fce	-0.06040936
245	0xbd740164	-0.05957164
246	0xbd1f4fd7	-0.0388945
247	0x3d8fea95	0.07027165
248	0xbd169280	-0.036760807
249	0x3d88d079	0.06680388
250	0x3d501f2b	0.050810974
251	0x3d3cd98f	0.046105918
252	0x3c9fbb81	0.019498589
253	0xbe0a862c	-0.13527745
254	0xbd3890f7	-0.045060124
255	0x3d065653	0.03279717

fc1.bias f4 [128]
0	0xbe4e73ab	-0.20161311
1	0xbd1ec5a3	-0.0387627
2	0xbdd8990d	-0.10576067
3	0x3d01eab2	0.031717964
4	0xbe016b6e	-0.12638637
5	0xbc8fcd32	-0.0175539
6	0x3ce51c25	0.027967522
7	0x3bf87ffb	0.007583616
8	0x3dc38782	0.095473304
9	0xbe04dbaa	-0.1297442
10	0xbe3c6f87	-0.1840192
11	0x3daefa6c	0.08543858
12	0x3c80e813	0.015735662
13	0x3e60fe87	0.21972094
14	0xbd84bb38	-0.06481022
15	0xbe25c5d8	-0.16188753
16	0xbc109226	-0.008823907
17	0xbb5c60d3	-0.0033627048
18	0x3d3e8b96	0.04651984
19	0xbdf84802	-0.121231094
20	0xbd287b4b	-0.041133206
21	0xbdc98efc	-0.09841725
22	0x3e4e1d08	0.20128262
23	0xbdc0f784	-0.0942221
24	0x3e70c0df	0.23511074
25	0xbddd76f6	-0.108137056
26	0xbd94693f	-0.072466366
27	0xbe1356fb	-0.14388649
28	0x3e0963ec	0.13417023
29	0xbe1cf93b	-0.15329449
30	0x3dad7653	0.08469834
31	0xbe18008d	-0.1484396
32	0x3e7f70f4	0.24945432
33	0xbcfad146	-0.030617367
34	0xbe4e5bbd	-0.20152183
35	0xbce47602	-0.027888302
36	0xbc3ad851	-0.011404113
37	0xbe566e56	-0.20940527
38	0x3d691124	0.056901112
39	0x3e399b6e	0.18125698
40	0x3d705871	0.058678094
41	0xbc3f0388	-0.011658557
42	0xbd8f0828	-0.069839776
43	0x3ca646d5	0.020297447
44	0xbe03fbba	-0.12888995
45	0x3e0b6b83	0.13615231
46	0x3e08a46e	0.13343975
47	0x3d057caa	0.032589592
48	0xbcd06ac5	-0.025441537
49	0xbe67d81b	-0.22641031
50	0xbe6e4632	-0.23268965
51	0x3e0d721e	0.13813064
52	0xbe2ca715	-0.16860612
53	0xbe5d559e	-0.21614692
54	0xbdd7d2b7	-0.105382375
55	0x3da494ad	0.0803617
56	0xbe743cf8	-0.23851383
57	0xbe25ae73	-0.16179828
58	0xbddb30ba	-0.10702653
59	0xbd7b6c0d	-0.061382342
60	0x3e24aaf6	0.16080841
61	0x3d43b493	0.04777963
62	0xbe45969d	-0.19295736
63	0xbe2b3d40	-0.16722584
64	0x3d5f5fc0	0.054534674
65	0xbd83db38	-0.06438297
66	0xbc2e8af1	-0.010653243
67	0x3e029b86	0.1275464
68	0xbd9cd48e	-0.07657729
69	0x3d7e63b7	0.062106814
70	0x3d0f3e47	0.0349715
71	0xbdab65cf	-0.08369028
72	0xbe4cd718	-0.20003927
73	0x3d87a319	0.06622905
74	0xbe07a728	-0.13247359
75	0xbccf5845	-0.025310645
76	0xbd155dab	-0.03646628
77	0xbddeb82b	-0.10874971
78	0xbb8ce98a	-0.004300301
79	0xbde3664d	-0.11103497
80	0xbb4c66e6	-0.0031189262
81	0x3c983816	0.018581431
82	0x3da456e9	0.08024389
83	0xbe585a5a	-0.21128216
84	0x3c66e07d	0.014091608
85	0x3dcdfe21	0.10058237
86	0xbe31ef1b	-0.17376368
87	0x3d2a7be3	0.041622054
88	0xbd1b324b	-0.03788976
89	0x3e65cd3a	0.22441569
90	0x3d1b84df	0.037968513
91	0xbd5b7dcd	-0.05358677
92	0xbe21e36e	-0.15809414
93	0xbd6845a5	-0.056707043
94	0x3d8b4587	0.06800371
95	0xbe1d22c7	-0.15345298
96	0x3dbfcd7c	0.09365365
97	0x3d83120f	0.06399929
98	0x3e21e57f	0.15810202
99	0x3e223d76	0.15843758
100	0xbdca3240	-0.09872866
101	0xbbeff8fc	-0.0073233824
102	0xbc4cb20d	-0.0124936225
103	0xbdfaef11	-0.122526295
104	0xbe27d1b2	-0.16388586
105	0xbdb72876	-0.08943264
106	0xbdf45087	-0.11929422
107	0xbe2e48af	-0.17019914
108	0xbe14d795	-0.14535363
109	0xbdaa3be8	-0.083122075
110	0xbdd993aa	-0.10623868
111	0xbe4fb274	-0.20282918
112	0xbd0c04f5	-0.034184415
113	0x3de77c53	0.1130301
114	0x3d98b9de	0.07457326
115	0x3d818178	0.06323522
116	0xbdf9f202	-0.122043625
117	0xbdb13f27	-0.086546235
118	0xbdac85d3	-0.084239624
119	0xbd38fa22	-0.04516042
120	0xbb74efc6	-0.0037374361
121	0x3d0c1e57	0.03420862
122	0x3d66815e	0.056275718
123	0x3c8da247	0.017289294
124	0xbe0b604f	-0.13610958
125	0x3e36cd6e	0.17851803
126	0x3e2e112f	0.16998743
127	0xbccb367f	-0.02480626

bn2.weight f4 [128]
0	0x3e489834	0.19589311
1	0x3e5c771f	0.21529816
2	0x3f1df7a2	0.6170598
3	0x3f1f87b5	0.6231645
4	0x3f5ff8ec	0.874892
5	0x3f4111c0	0.7541771
6	0x3f1c151b	0.60969704
7	0x3f0a304b	0.5397994
8	0x3f4eecaf	0.808299
9	0x3e8f2054	0.27954352
10	0x3f13965b	0.576513
11	0x3e9b61d5	0.30348077
12	0x3ef191e4	0.47181618
13	0x3f383bf9	0.7196651
14	0x3f242a4b	0.64127034
15	0x3edd22c8	0.43190598
16	0x3ee687df	0.45025536
17	0x3e7702e1	0.24122192
18	0x3f313554	0.69222
19	0x3f503d53	0.81343573
20	0x3f0d7098	0.5524993
21	0x3db449fa	0.088031724
22	0x3e064734	0.131131
23	0x3f48ed78	0.7848735
24	0x3eaed90a	0.34149963
25	0x3f2fdcc8	0.6869626
26	0x3f5bf12a	0.8591486
27	0x3ee28ca0	0.44247913
28	0x3e344645	0.1760493
29	0x3e0c0fc3	0.13677888
30	0x3f21a58a	0.6314322
31	0x3f32892c	0.6974056
32	0x3ed4240b	0.4143375
33	0x3dbe2bb4	0.092856795
34	0x3e435458	0.19075143
35	0x3eecae00	0.462265
36	0x3f375aa5	0.7162269
37	0x3e9e5b58	0.30929065
38	0x3e6ec27b	0.23316376
39	0x3e235f35	0.15954287
40	0x3f7f61b4	0.9975846
41	0x3f1acbcd	0.60467225
42	0x3e790241	0.24317266
43	0x3e88d6f0	0.26726484
44	0x3e705301	0.23469163
45	0x3f05888f	0.52161497
46	0x3e8ff8ec	0.281196
47	0x3f0405c9	0.5157133
48	0x3eed8dd2	0.46397263
49	0x3e6deacf	0.23234104
50	0x3e06d2cf	0.13166355
51	0x3e1db207	0.15399943
52	0x3ed39036	0.41320962
53	0x3f0e3659	0.5555168
54	0x3eca4419	0.3950508
55	0x3f026e6d	0.50949746
56	0x3f04c8ae	0.5186871
57	0x3f4d13b1	0.8010817
58	0x3e6e93be	0.23298547
59	0x3f5fc7f9	0.8741451
60	0x3e4b7101	0.19867326
61	0x3e0cc64d	0.1374752
62	0x3f24d600	0.6438904
63	0x3e863fd8	0.26220584
64	0x3f41d1ba	0.7571064
65	0x3ead0494	0.33792555
66	0x3f63be90	0.8896265
67	0x3f672f84	0.9030688
68	0x3f0c61ff	0.5483703
69	0x3f3a7350	0.728322
70	0x3f64201c	0.89111495
71	0x3f27d4d7	0.6555914
72	0x3e33790b	0.17526643
73	0x3ee9b289	0.45644024
74	0x3df54a05	0.11977009
75	0x3f486961	0.78285795
76	0x3ecc3d5a	0.39890558
77	0x3f029ae7	0.5101761
78	0x3e3cad63	0.18425517
79	0x3e9e46b3	0.30913314
80	0x3ef47388	0.47744393
81	0x3f5c2e31	0.8600798
82	0x3e87aeba	0.26500493
83	0x3f08b48f	0.5340051
84	0x3f6e806a	0.93164694
85	0x3f58b53d	0.8465155
86	0x3ec92585	0.39286438
87	0x3f66ee91	0.90207773
88	0x3f3156e9	0.6927324
89	0x3f6b10a6	0.9182228
90	0x3f0580f9	0.5214992
91	0x3e8d048f	0.2754254
92	0x3ed1d14a	0.40979987
93	0x3f22963f	0.6351051
94	0x3f2e0566	0.6797699
95	0x3db5b965	0.08873252
96	0x3f743c0c	0.95404124
97	0x3d70cc0f	0.058788355
98	0x3f3a8df9	0.72872883
99	0x3f6855cf	0.90755934
100	0x3f20c772	0.6280433
101	0x3ec13379	0.37734583
102	0x3f331208	0.6994939
103	0x3ecb5ed5	0.3972079
104	0x3e69b68d	0.22823544
105	0x3e26ea6f	0.16300367
106	0x3f2e2b68	0.6803498
107	0x3f470179	0.7773662
108	0x3ef1ceb6	0.4722802
109	0x3daa6bc9	0.0832134
110	0x3e032008	0.12805188
111	0x3ebb5fe8	0.36596608
112	0x3f33f746	0.70299184
113	0x3e557f57	0.20849358
114	0x3f188bdc	0.5958841
115	0x3e797130	0.24359584
116	0x3f846ac8	1.0345087
117	0x3eafde80	0.34349442
118	0x3f03e4a9	0.5152078
119	0x3df4e8a2	0.11958434
120	0x3e2d21bc	0.169074
121	0x3f0732a0	0.5281162
122	0x3f15708f	0.58374876
123	0x3f4d0bca	0.80096114
124	0x3e5df5d1	0.21675803
125	0x3f31530a	0.6926733
126	0x3ed27a0c	0.4110874
127	0x3f3b2b89	0.73113304

bn2.bias f4 [128]
0	0xbdd5f179	-0.10446448
1	0x3e0d4fd7	0.13799988
2	0x3e1780a1	0.14795162
3	0xbd7a189a	-0.061058618
4	0x3d481750	0.048850358
5	0xbd2b63c2	-0.041843183
6	0x3ddef62a	0.10886796
7	0x3e3efd51	0.1865132
8	0xbd0f3bc5	-0.03496911
9	0xbbb02b13	-0.0053762286
10	0xbda4cd86	-0.08047013
11	0x3d871b70	0.0659703
12	0x3de0d4ca	0.10978086
13	0xbd8bbbdb	-0.0682294
14	0xbda8e720	-0.082472086
15	0x3e50238e	0.20326063
16	0xbd8c2cf4	-0.06844512
17	0xbd21c122	-0.039490826
18	0xbd848831	-0.06471289
19	0x3dee80b8	0.11645645
20	0x3c015205	0.00789309
21	0xbda3d91d	-0.080003954
22	0x3e5de4de	0.21669337
23	0x3aede0a1	0.001814861
24	0xbd354bc9	-0.044261727
25	0xbd6dd1de	-0.058061473
26	0xbd9b41bb	-0.075808965
27	0x3d75a13a	0.05996821
28	0xbe18dd66	-0.14928207
29	0x3e677a31	0.22605206
30	0x3df788f2	0.12086667
31	0x3c35d9dc	0.011099305
32	0xbd4e4b95	-0.05036505
33	0x3e8df832	0.2772842
34	0xbdc029cb	-0.093829714
35	0xbdcfeb67	-0.10152321
36	0xbd57fd60	-0.05273187
37	0xbe818d14	-0.25302947
38	0x3e81de74	0.2536503
39	0x3b06281e	0.002047069
40	0xbd174323	-0.03692926
41	0x3c9fe0fb	0.019516459
42	0x3d041c88	0.032253772
43	0x3df5a66f	0.11994635
44	0x3e1e1203	0.15436558
45	0x3e16f13a	0.14740458
46	0x3de7c1ff	0.11316299
47	0x3e1cc51c	0.15309566
48	0x3e4cee4a	0.20012775
49	0x3dbb7404	0.091529876
50	0xbe1e119a	-0.15436402
51	0xbe5f9a11	-0.21836115
52	0x3e2a8e4e	0.16655847
53	0x3d95261f	0.07282662
54	0x3da64c1d	0.08119986
55	0xbe4c12d8	-0.19929063
56	0x3d1d4a2d	0.038400818
57	0x3e4bcecc	0.19903105
58	0xbe036871	-0.1283281
59	0x3dc1dd1d	0.09466002
60	0xbd2ebc8e	-0.04266029
61	0x3d46b69c	0.048513994
62	0xbe78417e	-0.24243733
63	0x3dc5f9c9	0.09666783
64	0x3db7c897	0.08973806
65	0xbd4594fb	-0.048237782
66	0x3e1a4881	0.1506672
67	0x3e3918de	0.18075892
68	0xbe03567b	-0.12825958
69	0xbbb337ca	-0.005469297
70	0x3d2215af	0.03957146
71	0x3da91ff4	0.08258048
72	0x3d5f3a0a	0.05449871
73	0x3d79a5fb	0.060949307
74	0xbd8a17aa	-0.06742795
75	0x3dc9bf18	0.09850901
76	0xbc474804	-0.012163166
77	0xbc4e7cc9	-0.012602993
78	0x3d6982cd	0.057009507
79	0xbdbbcf6b	-0.09170421
80	0xbd95c050	-0.07312071
81	0xbd8abd39	-0.067743726
82	0x3e218e69	0.15776981
83	0xbeb2eabb	-0.3494471
84	0x3e30a8a4	0.17251831
85	0xbd8090c7	-0.06277614
86	0xbe5e36b7	-0.2170056
87	0xbc7cfc71	-0.015441046
88	0x39ba390e	0.00035519194
89	0x3dc4ba72	0.09605874
90	0x3c15018f	0.00909461
91	0x3dd86b94	0.10567394
92	0xbe0d5f9f	-0.13806008
93	0x3d664048	0.056213647
94	0xbe25bcc4	-0.1618529
95	0x3e49f633	0.19722824
96	0xbc940b44	-0.018071778
97	0xbd08bb63	-0.03338183
98	0xbe06f671	-0.13179947
99	0x3c5a1ea8	0.013312973
100	0x3dbbdffe	0.091735825
101	0xbce7e115	-0.02830557
102	0xbd24dbc3	-0.040248644
103	0x3d24ff6a	0.040282644
104	0xbe29c062	-0.16577294
105	0xbe9859d8	-0.29756045
106	0x3d313eb4	0.04327269
107	0x3e04d019	0.12970008
108	0xbd7e87f6	-0.06214138
109	0xbe7cea7d	-0.24698825
110	0xbdae79cd	-0.085193254
111	0xbde3168e	-0.11088286
112	0x3d8d8e8d	0.06911955
113	0xbdf93a91	-0.12169374
114	0x3e078c72	0.1323717
115	0x3e1df656	0.15426001
116	0x3de0d630	0.10978353
117	0x3bcd6c55	0.0062690177
118	0x3cef4fbd	0.029212827
119	0x3d66b0d5	0.056320984
120	0xbe0a70f5	-0.13519652
121	0xbbb40580	-0.0054938197
122	0xbe18403a	-0.1486825
123	0xbd7b5f89	-0.061370406
124	0x3e14ea10	0.14542413
125	0x3d8ccacc	0.06874618
126	0xbd7cc9ca	-0.06171588
127	0x3dcad36a	0.09903605

bn2.running_mean f4 [128]
0	0x3a42d11e	0.00074316736
1	0x3d212e00	0.03935051
2	0x3d0925fa	0.033483483
3	0x3d842df4	0.06454077
4	0x3d5fdfcb	0.054656785
5	0x3d675dff	0.056486126
6	0x3da5c7a3	0.08094718
7	0x3d89a98b	0.06721791
8	0x3e177bba	0.14793292
9	0x3bc1afad	0.0059108348
10	0x3b0b59eb	0.0021263312
11	0x3e14d5de	0.14534709
12	0x3da17a76	0.07884686
13	0x3e80a8c1	0.2512875
14	0x3d4ddea1	0.050261144
15	0x3c36b5ad	0.011151713
16	0x3d27d17a	0.040971257
17	0x3d8dd6bc	0.06925723
18	0x3de47b02	0.111562744
19	0x3cd85d7f	0.02641177
20	0x3d830a41	0.0639844
21	0x3cecf733	0.028926468
22	0x3e50a768	0.2037636
23	0x3d11b810	0.035575926
24	0x3e68408a	0.2268087
25	0x3d14c070	0.036316335
26	0x3cf96830	0.030445188
27	0x3cd2e313	0.025743043
28	0x3e1a8d1c	0.15092891
29	0x3ca341bc	0.019928806
30	0x3def682c	0.11689791
31	0x3be952da	0.0071204724
32	0x3e731397	0.23737942
33	0x3d036e27	0.03208747
34	0x00000004	6e-45
35	0x3cff0d2a	0.031134207
36	0x3d9da09d	0.0769665
37	0x00000004	6e-45
38	0x3da21232	0.07913627
39	0x3e3ebb1f	0.18626069
40	0x3da490d5	0.08035437
41	0x3db8fb65	0.09032325
42	0x3d2c4ee9	0.042067442
43	0x3dcb582f	0.09928929
44	0x3ccc6353	0.024949705
45	0x3e2143f1	0.15748574
46	0x3e1cdb0e	0.15317938
47	0x3db94289	0.09045894
48	0x3d754670	0.059881628
49	0x00000004	6e-45
50	0x00000004	6e-45
51	0x3e30dee0	0.1727252
52	0x3c1a8f92	0.009433644
53	0x3abc49b1	0.0014365223
54	0x3cf1ada3	0.029501742
55	0x3dc6478f	0.096816175
56	0x3a922865	0.0011150955
57	0x3d097b63	0.033564936
58	0x3c2f730f	0.010708584
59	0x3d36dfb9	0.044646952
60	0x3e3d89b5	0.18509562
61	0x3d6a0a52	0.05713875
62	0x00000004	6e-45
63	0x3cce07c7	0.025150193
64	0x3df12b8e	0.117758855
65	0x3ca5a78a	0.02022149
66	0x3d8feca9	0.07027561
67	0x3e1ba1f2	0.15198496
68	0x3d370131	0.04467887
69	0x3d635a2b	0.055505913
70	0x3ddf07ef	0.10890185
71	0x3cd035fc	0.025416367
72	0x3b4dbbd5	0.0031392474
73	0x3da3499f	0.079730265
74	0x3cc54a02	0.024083141
75	0x3d09149d	0.033466924
76	0x3d156dd9	0.036481712
77	0x3d1fa8e8	0.03897944
78	0x3d82200a	0.06353767
79	0x3d14fe6f	0.03637546
80	0x3d3674da	0.044545032
81	0x3d9343be	0.07190655
82	0x3e00f3a5	0.12592943
83	0x00000004	6e-45
84	0x3dbae42a	0.0912555
85	0x3de7d957	0.11320751
86	0x00000004	6e-45
87	0x3d8b0791	0.067885526
88	0x3d87ce57	0.06631153
89	0x3e61d6e1	0.22054626
90	0x3de3dcd9	0.11126108
91	0x3d36d789	0.044639144
92	0x3bb68ae5	0.0055707567
93	0x3d35886c	0.044319555
94	0x3e017382	0.12641719
95	0x3c3726db	0.011178697
96	0x3da8c94c	0.08241519
97	0x3dc459dd	0.095874526
98	0x3e430220	0.1904378
99	0x3e208c94	0.15678626
100	0x3c230781	0.00995052
101	0x3d887f05	0.06664852
102	0x3d98ff1e	0.07470535
103	0x3d285373	0.04109521
104	0x00000004	6e-45
105	0x3cea7510	0.028620273
106	0x3c432b98	0.011912249
107	0x3c3ecf06	0.011646038
108	0x3c9e50ad	0.019325579
109	0x3ce7afc0	0.028282046
110	0x3b0f2460	0.002184175
111	0x3c1caefd	0.009563205
112	0x3d2426ea	0.040076174
113	0x3e03df59	0.12878169
114	0x3def5113	0.116853856
115	0x3dfc96bb	0.12333437
116	0x3d0f08e6	0.034920596
117	0x3c8d394e	0.017239239
118	0x3d253857	0.040336933
119	0x3d70321f	0.05864155
120	0x3d8342fd	0.064092614
121	0x3d8d4dbc	0.06899592
122	0x3dc68628	0.09693557
123	0x3ce3487b	0.027744522
124	0x3c83494a	0.016026158
125	0x3e3653af	0.1780536
126	0x3e548db2	0.20757177
127	0x3daa421b	0.0831339

bn2.running_var f4 [128]
0	0x3814c1a3	3.5466288e-05
1	0x3bbf385d	0.0058355764
2	0x3bc6d0fe	0.0060673943
3	0x3bbb68ea	0.005719294
4	0x3c40ce94	0.011768002
5	0x3c0945d1	0.008378462
6	0x3c4dce10	0.012561336
7	0x3c0925b0	0.008370802
8	0x3d012805	0.031532306
9	0x39b4a7da	0.00034457335
10	0x3949d6fe	0.00019248945
11	0x3ce042ea	0.027375657
12	0x3c23c90f	0.009996667
13	0x3ca5899c	0.020207219
14	0x3bb671d2	0.0055677677
15	0x3a8eb8ad	0.0010888778
16	0x3b9f5d01	0.004863382
17	0x3c082c23	0.008311304
18	0x3c99d0bf	0.018776296
19	0x3b6c1dc8	0.0036028493
20	0x3c204ee2	0.009784432
21	0x3b1b7fff	0.0023727415
22	0x3c601837	0.013677648
23	0x3ba2a9bf	0.004964083
24	0x3c5ea07e	0.013588069
25	0x3b881f73	0.0041541397
26	0x3b8985d5	0.004196862
27	0x3b26ad22	0.0025432785
28	0x3c51d130	0.012806222
29	0x3b1f1574	0.0024274262
30	0x3c96db4a	0.018415112
31	0x3a2a480a	0.000649572
32	0x3ceb798d	0.028744483
33	0x3b4f9a18	0.003167754
34	0x00000004	6e-45
35	0x3b027242	0.0019904529
36	0x3c49cf08	0.0123174265
37	0x00000004	6e-45
38	0x3be05f5f	0.0068473066
39	0x3c892118	0.016739413
40	0x3bbf02c1	0.0058291857
41	0x3cc6fb2f	0.024289696
42	0x3b98ba63	0.004660891
43	0x3c44939d	0.011998084
44	0x3b30730c	0.0026924042
45	0x3d0035cc	0.031301305
46	0x3c964ead	0.018348062
47	0x3c2894db	0.010289396
48	0x3bcb0963	0.0061961873
49	0x00000004	6e-45
50	0x00000004	6e-45
51	0x3cc0264f	0.023455767
52	0x3ad8e2a8	0.0016547041
53	0x393c945e	0.00017984348
54	0x3b3b0960	0.0028539523
55	0x3c473e1b	0.012160803
56	0x38ae4cb5	8.311254e-05
57	0x3bd03e4b	0.006355082
58	0x3a80f205	0.0009837752
59	0x3ba54da0	0.005044654
60	0x3c84d4ee	0.016214814
61	0x3b8f4fd1	0.0043735285
62	0x00000004	6e-45
63	0x3b73bfb2	0.0037193117
64	0x3ca1a14f	0.019730238
65	0x3adcd86c	0.0016849167
66	0x3c08e42a	0.00835518
67	0x3cb50625	0.022097657
68	0x3c08600a	0.008323679
69	0x3b0ad561	0.0021184313
70	0x3ca13368	0.019677833
71	0x3b1c0724	0.0023807967
72	0x393ca127	0.00017989111
73	0x3bf9abb1	0.007619344
74	0x3b74fe09	0.0037382862
75	0x3b84f7c1	0.004057855
76	0x3b80d9ae	0.0039321994
77	0x3b76021a	0.0037537874
78	0x3c14ee43	0.009090009
79	0x3b7a91fa	0.0038233981
80	0x3ba6c523	0.0050894185
81	0x3c32c39c	0.010910895
82	0x3c9d8e37	0.019232852
83	0x00000004	6e-45
84	0x3c3f85ca	0.011689613
85	0x3c0fe59b	0.00878277
86	0x00000004	6e-45
87	0x3be024a5	0.006840306
88	0x3c1b09bf	0.009462773
89	0x3cec9bbf	0.02888286
90	0x3c8c9276	0.017159682
91	0x3b6ccaf6	0.0036131716
92	0x39e2508f	0.000431661
93	0x3be20c08	0.006898407
94	0x3cc4eb5c	0.02403801
95	0x3a84f6cf	0.0010144355
96	0x3b8072b1	0.0039199223
97	0x3c798df3	0.015231597
98	0x3cf259ab	0.029583773
99	0x3c98b336	0.018640142
100	0x3a419dcd	0.000738588
101	0x3bf7a13a	0.0075570615
102	0x3c485a38	0.012228541
103	0x3be030c8	0.0068417527
104	0x00000004	6e-45
105	0x3b311256	0.0027018986
106	0x3a926e96	0.0011171873
107	0x3ab064c0	0.001345776
108	0x3b0779ad	0.002067189
109	0x3b392ec1	0.0028256627
110	0x38f1e901	0.00011535176
111	0x3aa346d2	0.0012457019
112	0x3ba179f5	0.0049278685
113	0x3ccc3ad9	0.024930404
114	0x3c72e0a3	0.014824065
115	0x3ca86a76	0.020558577
116	0x3b8f20a3	0.0043679043
117	0x3af91d51	0.0019005929
118	0x3b83337b	0.0040039397
119	0x3be91f4b	0.007114326
120	0x3bf08185	0.0073396587
121	0x3be3f879	0.0069571105
122	0x3c8b8c2f	0.017034618
123	0x3a8c8c5d	0.0010722984
124	0x3b00c4dd	0.001964859
125	0x3ab9e048	0.0014181221
126	0x3ccbae22	0.024863306
127	0x3c57940f	0.0131578585

fc2.weight f4 [128, 128]
0	0x3d9c8a56	0.07643573
1	0x3c69f2e6	0.014279103
2	0x3d4e3dfd	0.050352085
3	0x3c0ecbae	0.008715553
4	0xbb24218d	-0.0025044412
5	0x3d98b735	0.07456819
6	0x3d86c258	0.06580037
7	0xbe0c6ac2	-0.137126
8	0xbbcfa7b4	-0.0063371304
9	0xbdb3b637	-0.08774989
10	0x3c9e3308	0.019311443
11	0xbbe592e2	-0.007006035
12	0x3c2a0f3e	0.010379611
13	0x3b2587b3	0.0025257885
14	0xbc9f525e	-0.019448455
15	0x3d7bca6f	0.061472353
16	0xbaa2341e	-0.0012375151
17	0x3c63eef9	0.013911956
18	0xbc52136d	-0.012822014
19	0xbc800fd9	-0.015632557
20	0x3dc988d7	0.09840553
21	0xbb0348ba	-0.0020032362
22	0xbcbd675e	-0.023120578
23	0xbdcdcd59	-0.100489326
24	0x3d2a320b	0.04155163
25	0xbd004a74	-0.031321004
26	0x3cbaaade	0.022786554
27	0xbddfdae0	-0.10930419
28	0xbccac117	-0.024750276
29	0xbdccac63	-0.09993818
30	0xbdba0536	-0.09083025
31	0xbc76d29e	-0.0150648635
32	0x3d306573	0.0430655
33	0x3bf73cff	0.007545113
34	0x3d19804d	0.037475873
35	0xbd41cb1c	-0.04731284
36	0xbc6a94cd	-0.014317703
37	0x3d3a1e11	0.04543883
38	0xbdac76db	-0.084211074
39	0xbd4ab52c	-0.049489185
40	0x3c48e682	0.012261989
41	0xbd549f33	-0.051909637
42	0xbe235d51	-0.15953566
43	0xbd6548fe	-0.055977814
44	0xbe1d9046	-0.15387067
45	0x3cdf2b40	0.027242303
46	0xbd8d7a20	-0.06908059
47	0xbc6f3cb3	-0.014601874
48	0xbe071fce	-0.13195726
49	0x3db1325f	0.08652186
50	0x3e048ce9	0.12944378
51	0x3db09305	0.08621792
52	0xbd5da5d5	-0.054113228
53	0xbda9ed5e	-0.08297227
54	0xbdd43447	-0.103615336
55	0x3d6d62c9	0.057955537
56	0x3d295fb5	0.04135104
57	0xbe0d4697	-0.13796459
58	0x3c496924	0.012293134
59	0xbcd26438	-0.025682554
60	0x3dd8fc5b	0.10595008
61	0x3c9cdd8b	0.019148609
62	0x3d4a5840	0.049400568
63	0xbe11b6ef	-0.1422994
64	0x3d4951f8	0.049150437
65	0x3c925ce0	0.017866552
66	0xbe245895	-0.16049416
67	0xbca4a598	-0.020098493
68	0x3d828724	0.06373432
69	0x3d2a1587	0.041524436
70	0xbc7db60f	-0.015485301
71	0xbc1a6747	-0.009424037
72	0x3cd4f465	0.025995443
73	0xbd2ac2fc	-0.041689858
74	0x3ce560a8	0.02800019
75	0xbdc0a59e	-0.09406589
76	0x3c90e02a	0.017685015
77	0x3d2ba0fb	0.04190157
78	0x3a8a37ad	0.0010545157
79	0x3c03bd1e	0.0080406945
80	0x3b88ea1d	0.004178299
81	0x3d253561	0.04033411
82	0xbd5bf7e9	-0.053703222
83	0x3d9ded1c	0.07711241
84	0xbd5fb4e5	-0.054615874
85	0xbd85ef4c	-0.06539783
86	0x3cc19681	0.023631336
87	0xbdcaedbe	-0.09908627
88	0x3d4a95f7	0.049459424
89	0xbd5ee7e3	-0.054420363
90	0xbc8547bc	-0.016269557
91	0xbd9bbc4c	-0.07604274
92	0x3d413e68	0.047178656
93	0x3cef5f08	0.02922012
94	0x3da7c25f	0.0819137
95	0x3cb1b6a1	0.02169353
96	0xbc64fe73	-0.013976681
97	0xbd950375	-0.0727605
98	0x3c612918	0.013742708
99	0xbdae7801	-0.08518983
100	0xbba7d7b8	-0.005122151
101	0x3c246430	0.010033652
102	0xbc570f90	-0.013126269
103	0x3c205432	0.009785699
104	0x3dffe7d1	0.12495387
105	0x3dd0c20e	0.10193263
106	0xbd17ee49	-0.03709248
107	0x3ca9ef79	0.020744072
108	0x3ce4c0e1	0.027924003
109	0x3d912e3e	0.07088898
110	0x3ddbf9f7	0.107410364
111	0xbd500ae2	-0.05079163
112	0x3da08c42	0.07839252
113	0x3d586c21	0.052837495
114	0xbc83a7b3	-0.016071176
115	0xbda4d718	-0.080488384
116	0xbdd0f632	-0.10203208
117	0xbd8d1bca	-0.06890066
118	0xbe18372c	-0.14864796
119	0x3de0a9a4	0.109698564
120	0xbd108ced	-0.035290647
121	0x3df1069f	0.11768841
122	0xbd34bbe7	-0.04412451
123	0x3daa1f79	0.08306784
124	0x3dc23eb0	0.09484613
125	0x3cfe7120	0.031059802
126	0x3d5d426b	0.05401842
127	0x3c57704f	0.013149335
128	0x3d894500	0.06702614
129	0xbdb4f108	-0.088350356
130	0xbd93a760	-0.072096586
131	0x3dbdf987	0.09276109
132	0xbc7fee8a	-0.015620837
133	0xbd8a19f2	-0.0674323
134	0xbdcc1171	-0.09964264
135	0xbdc2a1d5	-0.09503523
136	0xbd9e01ad	-0.077151634
137	0x3b72b44f	0.0037033742
138	0x3d7131c5	0.058885355
139	0xbc90c761	-0.017673196
140	0xbd590971	-0.05298752
141	0x3bb28dd1	0.0054490347
142	0x3ce760c6	0.028244387
143	0xbd9c5880	-0.076340675
144	0x3dc12e64	0.094326764
145	0xbd00a101	-0.031403545
146	0x3dc8098c	0.09767446
147	0x3b27a36c	0.0025579585
148	0xbc41d359	-0.011830174
149	0x3e0afc52	0.13572815
150	0xbda2c1da	-0.079471305
151	0xbdbf5b05	-0.093435325
152	0xbd1a088d	-0.03760581
153	0x3cfc5ec4	0.030806907
154	0xbd28a3b0	-0.04117173
155	0xbd125772	-0.035727926
156	0xbd0ca3b5	-0.03433581
157	0xbdbc9586	-0.09208207
158	0xbcb558a3	-0.022136992
159	0x3cbd4c3e	0.023107644
160	0x3c51241a	0.012764955
161	0xbd4f623c	-0.050630793
162	0xbab832d4	-0.0014053234
163	0xbd1d967a	-0.038473584
164	0x3de538b9	0.111924596
165	0x3c5b3f72	0.013381826
166	0xbd48bb64	-0.049006835
167	0x3d4e0655	0.050299007
168	0xbce3f2de	-0.027825769
169	0xbd354509	-0.04425529
170	0x3d01167c	0.031515583
171	0xbd0ac2a6	-0.033877037
172	0xb8290e09	-4.030581e-05
173	0xbd248a06	-0.040170692
174	0xbd77abee	-0.0604667
175	0x3d93b923	0.072130464
176	0xbd4ac6c1	-0.049505953
177	0x3dc82f49	0.09774644
178	0xbd456d0e	-0.048199706
179	0x3dd5c79a	0.104384616
180	0xbdfc6378	-0.1232366
181	0xbd25e1e8	-0.040498644
182	0x3dbc4fcf	0.0919491
183	0xbe027c74	-0.12742788
184	0xbd2f18ce	-0.042748265
185	0x3c1d4f48	0.009601422
186	0x3c9116af	0.017711012
187	0xbc5620fb	-0.013069387
188	0xbd2d119f	-0.042253133
189	0xbd09ff0d	-0.0336905
190	0x3d80ca71	0.06288613
191	0x3c6e5902	0.014547588
192	0x3c7156ed	0.014730197
193	0xbdac08e1	-0.08400131
194	0xbcbec2c1	-0.023286225
195	0xbc445698	-0.011983536
196	0xbc946dac	-0.018118702
197	0x3d9f1d98	0.077693164
198	0x3d252065	0.040314097
199	0xbd08ed56	-0.033429466
200	0xbda8728f	-0.08224975
201	0xbcc4cda1	-0.024023833
202	0x3e132a01	0.14371492
203	0xbc5e228a	-0.013558039
204	0x3d404bbb	0.046947222
205	0xbdc32a59	-0.095295615
206	0xbcc09dcf	-0.023512749
207	0xbda60f07	-0.08108335
208	0xbd856af9	-0.06514544
209	0xbd9d0f5a	-0.07668944
210	0x3d64ad23	0.05582918
211	0x3ddb3799	0.10703964
212	0xbdb07516	-0.08616082
213	0xbd204f78	-0.039138287
214	0x3dbc8723	0.09205463
215	0x3d99ef20	0.075163126
216	0xbdff8d9e	-0.12478183
217	0x3d62a594	0.05533369
218	0xbd68f32b	-0.056872528
219	0xbdae84d7	-0.08521431
220	0x3db38eb5	0.087674536
221	0xbdd535d8	-0.104106605
222	0xbc9c4d74	-0.019079901
223	0x3a0611bc	0.0005114337
224	0x3c3daad0	0.011576369
225	0xbcbea87e	-0.023273703
226	0x3ce19c4f	0.027540354
227	0xbd01b91c	-0.031670675
228	0x3da3519a	0.07974549
229	0x3cfcf05c	0.030876331
230	0x3d53837e	0.051639073
231	0x3cfd65d2	0.03093234
232	0xbd1194fc	-0.035542473
233	0x3d827855	0.06370608
234	0x3ad01f01	0.001587838
235	0xbc21a301	-0.009865523
236	0x3e065277	0.13117395
237	0xbcd4f08e	-0.025993612
238	0xbbd59f0c	-0.006519204
239	0x3deb94fe	0.115030274
240	0x3c19914c	0.00937302
241	0x3d4e302f	0.05033892
242	0x3d463d07	0.048398044
243	0xbd462ac0	-0.048380613
244	0x3d2f86fd	0.042853344
245	0x3cf2ee58	0.029654667
246	0x3d198039	0.0374758
247	0xbdc6377f	-0.09678554
248	0x3c53c8ac	0.012926262
249	0x3bc68cd4	0.0060592685
250	0x3c932cf4	0.017965771
251	0xbcff1406	-0.031137478
252	0xbe3ad902	-0.18246844
253	0x3d4fb66b	0.050711077
254	0xbc4ef89c	-0.012632515
255	0xbc7878ac	-0.015165489

fc2.bias f4 [128]
0	0xbdb48c20	-0.08815789
1	0xbe07f98a	-0.13278785
2	0x3e310813	0.17288236
3	0x3ce582ed	0.028016532
4	0xbda3544c	-0.07975063
5	0x3c1b5937	0.00948172
6	0xbdadfe24	-0.08495739
7	0xbe573bee	-0.21018955
8	0x3c3e15ee	0.011601908
9	0xbcc5e749	-0.024158137
10	0xbd52465e	-0.05133664
11	0xbca327d5	-0.019916454
12	0xbd4a4e4d	-0.04939108
13	0x3d6279be	0.055291884
14	0xbbd9f0bb	-0.0066510118
15	0xbe2fa8a1	-0.1715417
16	0xbe0ae591	-0.13564135
17	0xbd749c1b	-0.059719186
18	0x3e4d64b3	0.20057945
19	0xbd68af27	-0.056807663
20	0xbd1f2256	-0.038851105
21	0xbe32a1a4	-0.17444474
22	0x3bdcb2e1	0.006735191
23	0xbd52fd2e	-0.051510982
24	0xbd3e481c	-0.046455488
25	0xbe02a252	-0.12757233
26	0xbdd6112b	-0.10452493
27	0xbddb173f	-0.10697793
28	0xbe3be954	-0.18350726
29	0x3e3453d0	0.17610097
30	0xbc99d85a	-0.018779922
31	0xbdefae2c	-0.117031425
32	0xbdadfb45	-0.084951915
33	0xbd904ffb	-0.07046505
34	0xbdca0e59	-0.09866018
35	0x3c785406	0.0151567515
36	0x3cef1154	0.029183067
37	0xbd9d9b21	-0.07695604
38	0xbcace15d	-0.021103555
39	0xbd83c495	-0.064339794
40	0xbdbb9882	-0.09159948
41	0xbe27e196	-0.16394648
42	0xbd9f8d5f	-0.07790636
43	0xbd4b1590	-0.04958111
44	0x3e6e45cc	0.23268813
45	0xbbf7200a	-0.007541661
46	0xbdeff385	-0.117163695
47	0xbe12da35	-0.14341052
48	0x3d76eca9	0.06028429
49	0xbdbc9f14	-0.09210029
50	0xbd707dc5	-0.058713693
51	0x3bf40886	0.007447305
52	0xbd8d7fc4	-0.06909135
53	0xbcc47ca2	-0.02398521
54	0x3dde7309	0.10861785
55	0x3e597aaf	0.21238206
56	0xbde75818	-0.112960994
57	0x3d951754	0.0727984
58	0xbcce1dbf	-0.025160668
59	0xbdd171a5	-0.10226754
60	0x3d32053b	0.04346202
61	0xbd07afd1	-0.033126656
62	0xbdceeea2	-0.10104109
63	0x3cf2d9a9	0.029644804
64	0xbd893897	-0.06700247
65	0xbd551626	-0.052023076
66	0xbe0d5e9b	-0.1380562
67	0xbd4807aa	-0.048835434
68	0x3ce940c9	0.028473275
69	0xbd712df8	-0.05888173
70	0xbd6d1f47	-0.057891157
71	0xbd6fee3d	-0.05857681
72	0x3bad2ffa	0.0052852603
73	0xbd8dff6f	-0.06933486
74	0xbdef928d	-0.11697874
75	0xbd68a764	-0.05680026
76	0xbb8e42e7	-0.0043414715
77	0x3cb50302	0.02209616
78	0x3d62ebbb	0.05540059
79	0x3ca37e3c	0.019957654
80	0xbce79bc6	-0.02827252
81	0xbde98483	-0.11402228
82	0xbcc226a5	-0.023700068
83	0xbd1728de	-0.03690421
84	0xbe619376	-0.22028908
85	0xbdd353f5	-0.10318748
86	0x3d18c847	0.037300374
87	0xbdd158d2	-0.10222019
88	0x3c1234a9	0.008923688
89	0xbcbc7bc0	-0.023008227
90	0xbcf68924	-0.03009469
91	0x3c481c7e	0.012213824
92	0x3d395f66	0.045256995
93	0xbdd88aa1	-0.10573316
94	0x3c9414b6	0.018076282
95	0xbc8faa4d	-0.01753726
96	0xbdbb705e	-0.09152292
97	0xbcd125b6	-0.025530677
98	0xbda88e0b	-0.082302175
99	0xbde903bf	-0.11377668
100	0xbd723967	-0.059136774
101	0xbd354857	-0.04425844
102	0x3de580b5	0.112061895
103	0xbde1ef96	-0.110320255
104	0xbd8c1bf8	-0.06841272
105	0xbe1294e5	-0.14314611
106	0xbdadcbc7	-0.08486133
107	0xbe19e2e2	-0.15027955
108	0xbe3251a0	-0.1741395
109	0xbd8ce34f	-0.06879293
110	0xbdb2bd3e	-0.08727501
111	0xbb467f73	-0.0030288368
112	0xbda25805	-0.07926945
113	0xbca95c44	-0.020673878
114	0xbdba7640	-0.09104586
115	0xbd915e82	-0.07098104
116	0xbcea79ce	-0.028622534
117	0x3e32c213	0.17456846
118	0xbd2a86a3	-0.041632306
119	0xbd20ae87	-0.039228942
120	0xbae7b4e5	-0.0017677812
121	0xbd9f30a9	-0.07772953
122	0xbd4ef26c	-0.05052416
123	0xbdc40f80	-0.09573269
124	0xbe4193f1	-0.18904091
125	0xbd4236a7	-0.0474154
126	0xbdc7fa4f	-0.097645395
127	0x3e08596f	0.13315366

bn3.weight f4 [128]
0	0x3f685efd	0.9076994
1	0x3f93afd0	1.1538029
2	0x3f052ac6	0.5201839
3	0x3f619bfa	0.88128626
4	0x3f939ff7	1.1533192
5	0x3f11b24e	0.56912696
6	0x3f2638d2	0.6493045
7	0x3f0a8130	0.54103374
8	0x3f2839ba	0.65713084
9	0x3f9f18d4	1.2429452
10	0x3f628046	0.8847698
11	0x3f18dc83	0.59711474
12	0x3f82618a	1.0186017
13	0x3f7de7c6	0.99181783
14	0x3f12bc6f	0.57318777
15	0x3f8f8b79	1.1214439
16	0x3ee67653	0.4501215
17	0x3f7aac99	0.97919613
18	0x3f5b1dcf	0.8559236
19	0x3f5888b5	0.845836
20	0x3f101f03	0.5629732
21	0x3f6ba1f7	0.92044014
22	0x3f47af4f	0.78001875
23	0x3f2b1fdc	0.6684549
24	0x3f4a5ea4	0.7905066
25	0x3f7d743e	0.99005497
26	0x3f83c27d	1.0293728
27	0x3f1a393f	0.602436
28	0x3f1a4b6d	0.6027134
29	0x3edcb9b2	0.43110424
30	0x3f46250a	0.7740027
31	0x3f650d68	0.8947358
32	0x3f2cbe50	0.67477894
33	0x3faa72d9	1.3316299
34	0x3f8f4a71	1.1194593
35	0x3f826525	1.0187117
36	0x3f89b5af	1.075857
37	0x3f222a66	0.63345945
38	0x3f47092f	0.7774839
39	0x3f35db5c	0.7103784
40	0x3f2e6f05	0.6813815
41	0x3f8b8ce8	1.0902376
42	0x3eb3b23f	0.35096928
43	0x3fb489dd	1.4104573
44	0x3f61191e	0.8792895
45	0x3f90d41e	1.1314733
46	0x3f6790c5	0.90455276
47	0x3f42cb43	0.760914
48	0x3f35f7b9	0.7108112
49	0x3f93a926	1.1535995
50	0x3f28cc6a	0.6593691
51	0x3f295795	0.66149265
52	0x3f53dc1f	0.82757753
53	0x3f1e6c95	0.61884433
54	0x3e54df91	0.20788409
55	0x3eb19c17	0.346894
56	0x3f2ed171	0.6828833
57	0x3f956008	1.1669931
58	0x3fa16064	1.2607541
59	0x3f43b7c7	0.76452297
60	0x3fa1058f	1.2579821
61	0x3f4b13d0	0.79327106
62	0x3f51cab3	0.8194992
63	0x3f9964af	1.1983851
64	0x3f5dfca4	0.86713624
65	0x3f084e62	0.532446
66	0x3f8ba508	1.0909739
67	0x3ebe357b	0.37150177
68	0x3f5bd7cf	0.8587617
69	0x3e9fd764	0.31219018
70	0x3fa89fb5	1.3173739
71	0x3f66be5a	0.90134203
72	0x3f51de5b	0.8197991
73	0x3f73cafb	0.952316
74	0x3eec9a88	0.46211648
75	0x3fa25367	1.2681702
76	0x3f8e6c62	1.1126826
77	0x3f8481cc	1.0352111
78	0x3f967ccd	1.1756836
79	0x3fa916ef	1.3210124
80	0x3fb6303f	1.4233474
81	0x3f894e49	1.0727016
82	0x3f8e2663	1.1105465
83	0x3eed0f5f	0.4630079
84	0x3f7e7d9b	0.9941041
85	0x3f7d758c	0.9900749
86	0x3f35b034	0.7097199
87	0x3f3c6b27	0.73601
88	0x3f350626	0.70712507
89	0x3fa2d7ba	1.2722085
90	0x3f43f4b4	0.7654526
91	0x3f1040ac	0.5634868
92	0x3f6bc7c2	0.9210168
93	0x3f916daf	1.1361598
94	0x3f120da0	0.5705204
95	0x3f33c47a	0.70221674
96	0x3f415d0a	0.7553259
97	0x3f0a2839	0.53967625
98	0x3f77c290	0.96781254
99	0x3f077ed4	0.529279
100	0x3f328568	0.6973481
101	0x3ef8fc2c	0.48629892
102	0x3f7ccf54	0.9875386
103	0x3ef946f2	0.4868694
104	0x3f85d59c	1.0455813
105	0x3f9a7d9f	1.2069587
106	0x3f697695	0.91196567
107	0x3f1294b7	0.5725817
108	0x3fa5d3a0	1.2955208
109	0x3f6fffd7	0.93749756
110	0x3fa3cbf2	1.2796614
111	0x3f912d41	1.1341935
112	0x3f7e9ff5	0.99462825
113	0x3f60bed3	0.87791175
114	0x3f862f42	1.0483172
115	0x3f632bb5	0.88738567
116	0x3fa5fca4	1.2967725
117	0x3f9dc0e9	1.2324497
118	0x3f97b14d	1.1850983
119	0x3f7b84bf	0.9824943
120	0x3f3c3ad4	0.73527265
121	0x3fa19121	1.2622415
122	0x3eddf72f	0.4335265
123	0x3f6e3030	0.9304228
124	0x3f2f1275	0.6838754
125	0x3f81677a	1.0109704
126	0x3fbd1fe7	1.4775361
127	0x3ee3eeca	0.4451812

bn3.bias f4 [128]
0	0x3ccdf477	0.025140984
1	0x3d3b69c7	0.045755174
2	0xbd8c76e9	-0.06858618
3	0x3c420252	0.0118413735
4	0x39b1ac6d	0.00033888538
5	0x3dacef69	0.08444101
6	0xbc411df2	-0.011786925
7	0xbe0c7c48	-0.13719285
8	0x3d25738e	0.040393405
9	0x3dac47de	0.08412145
10	0xbd870357	-0.06592434
11	0x3c8f2c35	0.017477134
12	0xbd6958cd	-0.056969453
13	0x3d9d48a0	0.07679868
14	0xbd6d1d8b	-0.057889502
15	0xbd374fc8	-0.04475382
16	0x3ddb5690	0.1070987
17	0x3db9414e	0.09045659
18	0x3c2b6d97	0.01046314
19	0x3dbee320	0.093206644
20	0xbd0477a4	-0.03234066
21	0x3de751d4	0.11294904
22	0x3c5e8cf1	0.013583408
23	0xbca8651f	-0.02055603
24	0x3dce50ea	0.10074027
25	0x3cc396ee	0.02387568
26	0xbd06064c	-0.03272085
27	0xbd128953	-0.035775494
28	0xbd2fc828	-0.042915493
29	0xbd7e4892	-0.062080927
30	0x3dd9e4f4	0.106393725
31	0xbe27004f	-0.16308711
32	0x3dd6ce3a	0.10488553
33	0xbd89f185	-0.06735519
34	0x3b23166e	0.0024885195
35	0xbc256c84	-0.010096673
36	0xbbb1a8d1	-0.005421736
37	0xbe01ef6e	-0.12688991
38	0x3d99934e	0.07498799
39	0x3e1be441	0.1522379
40	0x3d82923b	0.063755475
41	0xbd6985d9	-0.057012413
42	0xbcf3ab06	-0.029744636
43	0xbddd337e	-0.10800837
44	0xbd35e68c	-0.04440932
45	0x3dc50a49	0.09621102
46	0xbe056886	-0.13028154
47	0xbc96cdd4	-0.018408693
48	0xbcab121e	-0.020882662
49	0xbd9df923	-0.07713535
50	0xbd8c33cd	-0.06845818
51	0xbc103264	-0.008801077
52	0xbdfa2687	-0.1221438
53	0x3d4cd929	0.050011788
54	0xbd43c5d0	-0.04779607
55	0xbd5eb323	-0.054370057
56	0x3d847f25	0.064695634
57	0x3b59896e	0.0033193487
58	0xbd2173c4	-0.039417043
59	0xbd06bc60	-0.032894492
60	0x3d2859c7	0.041101243
61	0xbd6a4904	-0.05719854
62	0x3d99585a	0.07487555
63	0x3dbd969f	0.09257244
64	0x3bfaa476	0.007649
65	0xbda3856a	-0.07984431
66	0x3dfab630	0.12241781
67	0x3da5e0e8	0.08099538
68	0xbde67588	-0.11252886
69	0xbd8780c0	-0.06616354
70	0xbd8fdbd1	-0.070243485
71	0x3cc3b533	0.023890113
72	0x3ddf9630	0.10917318
73	0xbcf376b9	-0.029719697
74	0xbce9ebe3	-0.028554862
75	0xbb3b5c60	-0.0028588995
76	0xbcbee8da	-0.023304392
77	0xbd3c51a8	-0.04597631
78	0xbbddb18c	-0.00676555
79	0x3dcfbcdd	0.10143445
80	0x3bc737fc	0.006079672
81	0x3cbe8952	0.023258839
82	0x3b3efe15	0.0029143144
83	0x3c6e8b61	0.014559598
84	0x3dcf0a83	0.10109427
85	0x3c8f05f1	0.017458888
86	0x3c76985f	0.015050977
87	0x3dce7675	0.10081188
88	0x3cc662b4	0.024216987
89	0xbcd02657	-0.025408907
90	0x3d8dec51	0.069298394
91	0xbb2b9da3	-0.0026186488
92	0x3ba64b4a	0.005074893
93	0xbd6b7724	-0.05748667
94	0x3bdf21ec	0.0068094637
95	0x3d80e4b7	0.06293624
96	0xbb9c5e0a	-0.0047719525
97	0xbd9dfec6	-0.0771461
98	0xbd9fe525	-0.07807378
99	0xbd4e8579	-0.05042026
100	0xbd93b957	-0.07213085
101	0xbdc5eb24	-0.0966399
102	0xbdb89fc0	-0.09014845
103	0xbd69839f	-0.05701029
104	0xbc9670ad	-0.018364275
105	0x3d9b317b	0.07577797
106	0x3a9e5a41	0.0012081341
107	0x3d93785c	0.07200691
108	0x3d9fd33f	0.07803964
109	0xbdbd02f2	-0.092290774
110	0x3d28ee09	0.041242633
111	0xbd5777b0	-0.052604377
112	0x3cb26f36	0.021781545
113	0x3d6d2a53	0.05790169
114	0xbdd42345	-0.1035829
115	0xbdae5c9f	-0.0851376
116	0xbc9c9661	-0.019114675
117	0x3cab5915	0.020916501
118	0xbd9ab74c	-0.07554492
119	0xbcefe359	-0.029283212
120	0x3cec16ad	0.028819406
121	0xbe1729ea	-0.14762083
122	0xbd01ae7c	-0.031660542
123	0xbbeabe5b	-0.0071638054
124	0x3d3a99cb	0.045556825
125	0xbd02a7d5	-0.03189834
126	0x3c64f53d	0.013974485
127	0x3c26a862	0.0101719815

bn3.running_mean f4 [128]
0	0x3cf46c81	0.029836895
1	0x3b4a7eac	0.0030898256
2	0x3f38a6fd	0.72129804
3	0x3e0f73d4	0.14009029
4	0x3db15be0	0.08660102
5	0x3d818854	0.06324831
6	0x3cca8e5c	0.024726085
7	0x3bc23bb4	0.0059275273
8	0x3e71e8b8	0.23623931
9	0x3d2c62ea	0.04208652
10	0x3c78b86e	0.01518069
11	0x3eaa22ea	0.33229762
12	0x3d5a89fd	0.053354252
13	0x3e95911b	0.2921227
14	0x3d07fdfd	0.033201206
15	0x001cb43f	2.636054e-39
16	0x3c179198	0.009251021
17	0x3d1e98a3	0.038719784
18	0x3f43b973	0.7645485
19	0x3cded2ab	0.027200064
20	0x3da68113	0.08130088
21	0x3c6f1746	0.014592951
22	0x3dfebe44	0.12438634
23	0x3d40738e	0.0469852
24	0x3cf24d82	0.029577974
25	0x3d40a87f	0.04703569
26	0x3b4120fc	0.0029469123
27	0x3c3b0580	0.0114148855
28	0x3c41a2fb	0.011818643
29	0x3f190020	0.59765816
30	0x3bbb1497	0.0057092416
31	0x3d978239	0.07397885
32	0x3d57d44d	0.0526927
33	0x3d3ec732	0.046576686
34	0x3d0bb322	0.03410638
35	0x3c931c26	0.017957758
36	0x3dd1ae4b	0.10238322
37	0x3c85c18a	0.016327638
38	0x3b5897e2	0.0033049514
39	0x3d9c525a	0.07632895
40	0x3d24bff1	0.040222112
41	0x3c6addbf	0.014335095
42	0x3da66a05	0.0812569
43	0x3d541200	0.05177498
44	0x3f320cce	0.6955079
45	0x3d0a0eaf	0.03370541
46	0x3de04c57	0.10952061
47	0x3c9868d3	0.018604672
48	0x3f0b369e	0.54380214
49	0x3d8b33fb	0.06797024
50	0x3d2e36b7	0.04253265
51	0x3e2bcc43	0.16777138
52	0x3cb729fc	0.022358887
53	0x3ea47175	0.3211781
54	0x3f08de37	0.5346407
55	0x3f4572db	0.7712838
56	0x3d0e91ad	0.034806896
57	0x3dbf49ba	0.09340234
58	0x3d10de65	0.035368342
59	0x3c4d92ae	0.012547178
60	0x3e106702	0.14101794
61	0x3d451fd2	0.04812605
62	0x3ce9b9c7	0.028530968
63	0x3d7a0e88	0.061049014
64	0x3d6b942e	0.057514362
65	0x3a1c9cc4	0.00059742876
66	0x00000004	6e-45
67	0x3ea7af52	0.32750946
68	0x3ea2a644	0.31767476
69	0x3d6333f4	0.05546947
70	0x3d817f4a	0.063231066
71	0x3ced8cbc	0.028997771
72	0x3e59a360	0.21253729
73	0x3c3afba1	0.011412532
74	0x3d98f203	0.07468035
75	0x3d7a4046	0.061096452
76	0x3bbd7b81	0.005782545
77	0x3e475aa6	0.19468173
78	0x3e8d4add	0.2759618
79	0x3e4f99d3	0.20273523
80	0x3e116b59	0.14201106
81	0x3b21e835	0.0024705057
82	0x3c9bcbf6	0.019018155
83	0x3d2d154e	0.042256646
84	0x3c046440	0.008080542
85	0x3c664c5f	0.014056294
86	0x3e82cc6d	0.2554659
87	0x3d9f6797	0.0778343
88	0x3e3fd608	0.1873399
89	0x3c9aa798	0.018878743
90	0x3cb139dc	0.021634035
91	0x3d8bc845	0.06825308
92	0x3e0d4a12	0.13797787
93	0x3cb84656	0.022494476
94	0x3d86e17c	0.065859765
95	0x3d89aab3	0.067220114
96	0x3d4edfab	0.050506275
97	0x3d9dcd69	0.077051945
98	0x3cd2dbb4	0.025739528
99	0x3c227b91	0.009917156
100	0x3d2d1919	0.042260263
101	0x3e82c520	0.2554102
102	0x3ef98401	0.48733523
103	0x3991773f	0.000277454
104	0x3c511a34	0.012762595
105	0x3d5ad2ba	0.05342362
106	0x3d8c92ee	0.06863962
107	0x3beb3844	0.0071783382
108	0x3a4f471e	0.00079070206
109	0x3d6a02b1	0.057131473
110	0x3d7a1258	0.06105265
111	0x3be9c352	0.0071338797
112	0x3d9938f5	0.07481567
113	0x3d34fe21	0.04418767
114	0x3c7ca64a	0.015420506
115	0x3d96e4a4	0.073678285
116	0x3d540a41	0.05176759
117	0x3f38214a	0.71925795
118	0x3d1b32f1	0.03789038
119	0x3d0396d7	0.032126274
120	0x3db5868b	0.08863553
121	0x3dcfeddd	0.10152791
122	0x3d008181	0.031373505
123	0x3cc36dbb	0.023856035
124	0x3b1eab06	0.0024210825
125	0x3e31173a	0.17294016
126	0x3b712cf4	0.0036800476
127	0x3e92c5b5	0.28666463

bn3.running_var f4 [128]
0	0x3bf379e4	0.007430302
1	0x3a10ae20	0.0005519111
2	0x3e9b30d8	0.30310702
3	0x3d98d93d	0.0746331
4	0x3d16d68f	0.036825713
5	0x3c55d0c6	0.013050264
6	0x3bc6fb08	0.0060724057
7	0x3ab3b89d	0.0013711635
8	0x3e58dfd0	0.21179128
9	0x3cc9c41f	0.02462965
10	0x3b896ae5	0.004193651
11	0x3ea00b72	0.31258732
12	0x3c86746c	0.016412936
13	0x3debe85f	0.11518931
14	0x3c208cdd	0.009799209
15	0x00000878	3.038e-42
16	0x3b87f59e	0.004149153
17	0x3bd47d54	0.006484667
18	0x3ec74e44	0.389269
19	0x3bbef4a2	0.0058275023
20	0x3d6e93ad	0.058246303
21	0x3b290182	0.0025788252
22	0x3d94ac2f	0.07259404
23	0x3c19dabd	0.00939053
24	0x3bd94f3a	0.006631759
25	0x3cad73aa	0.021173317
26	0x3a12a720	0.00055943616
27	0x3b090fd9	0.0020913987
28	0x3b39953b	0.0028317708
29	0x3e93b6c5	0.2885038
30	0x3a897b15	0.0010488952
31	0x3cc2ff20	0.023803294
32	0x3c4773e6	0.012173628
33	0x3c61552e	0.013753219
34	0x3c1dcb60	0.009631008
35	0x3bf06b0e	0.0073369807
36	0x3d10260e	0.03519254
37	0x3b74eb87	0.003737183
38	0x39be861f	0.00036339552
39	0x3ccde307	0.02513267
40	0x3cfce152	0.03086916
41	0x3b0bf957	0.0021358335
42	0x3d2fd084	0.042923465
43	0x3ce6fa79	0.028195607
44	0x3e71af69	0.2360207
45	0x3c08502f	0.0083198985
46	0x3d467297	0.048449125
47	0x3ba19c4d	0.0049319626
48	0x3ebaece0	0.36508846
49	0x3c9bbeda	0.019011904
50	0x3c8eb260	0.01741904
51	0x3dca513c	0.098787755
52	0x3bcba589	0.0062148017
53	0x3e068d59	0.13139857
54	0x3e295ea5	0.1654001
55	0x3ebb706b	0.36609206
56	0x3c5a81b5	0.013336589
57	0x3cfcbf63	0.030852979
58	0x3c127b27	0.008940495
59	0x3b1f411e	0.0024300287
60	0x3d3ddcd1	0.046353165
61	0x3c2ef8eb	0.010679464
62	0x3c1854dd	0.009297577
63	0x3c882479	0.016618954
64	0x3ca16e30	0.019705862
65	0x390ba1ac	0.000133163
66	0x00000004	6e-45
67	0x3dba87b3	0.09107914
68	0x3e10bdde	0.14134929
69	0x3c92a299	0.017899798
70	0x3c7417bd	0.014898238
71	0x3bde2952	0.006779828
72	0x3d78f2d1	0.060778443
73	0x3b6fe0a9	0.0036602414
74	0x3cd1b58d	0.025599265
75	0x3caaa579	0.020830857
76	0x3ae3482d	0.0017340236
77	0x3dc11b52	0.09429039
78	0x3e0ef9e7	0.13962518
79	0x3d7022b1	0.058626834
80	0x3d327971	0.043572847
81	0x39d0a64b	0.0003979675
82	0x3b58a121	0.0033055025
83	0x3c503fc9	0.01271052
84	0x3b86790c	0.0041037854
85	0x3bd1465e	0.0063865623
86	0x3e0a315a	0.13495389
87	0x3cf69b86	0.030103456
88	0x3d6829fb	0.05668066
89	0x3b9c0196	0.0047609312
90	0x3ba71f50	0.0051001683
91	0x3c9c1d53	0.019056952
92	0x3d99f547	0.07517486
93	0x3be3566f	0.006937794
94	0x3c877894	0.016536988
95	0x3d2bdd42	0.041959055
96	0x3c5799ca	0.013159225
97	0x3d01a55e	0.031651847
98	0x3c3c0afb	0.011477227
99	0x3ac72044	0.0015192111
100	0x3c46399f	0.012098699
101	0x3e91ec20	0.28500462
102	0x3ee64d7a	0.44980985
103	0x385493f2	5.0682524e-05
104	0x3b285dfe	0.002569079
105	0x3c8f1210	0.017464668
106	0x3ccce328	0.02501066
107	0x3b0278c4	0.0019908408
108	0x38f64529	0.00011743076
109	0x3d1ce7ed	0.03830712
110	0x3cc8852e	0.024477568
111	0x3aa3892b	0.0012476792
112	0x3c895b61	0.016767206
113	0x3c4676ce	0.012113286
114	0x3b62e830	0.0034623258
115	0x3cd46077	0.025924904
116	0x3c9e7049	0.019340651
117	0x3e98aee5	0.29820934
118	0x3c9230de	0.017845567
119	0x3c02bf3a	0.007980162
120	0x3cf038a9	0.029323893
121	0x3d2bd61a	0.04195223
122	0x3c228814	0.009920139
123	0x3be377e6	0.0069417832
124	0x3a1d53a2	0.0006001537
125	0x3d80649f	0.06269192
126	0x3ad36b74	0.0016130046
127	0x3e2da228	0.16956389
